Assets/Brain_Models/2P_brain_0728.onnx (onnx, 618149 bytes, 10 tensors)

network_body._body_endoder.seq_layers.0.weight f4 [128, 30]
000000 39 68 84 bd e0 84 b7 bd c7 dd 6d 3e af 48 42 3b
       -0.064651914 -0.08960891 0.23229133 0.0029645374
000010 6c 16 d8 3e fc ec 2a be 65 c7 b7 be 01 72 02 be
       0.42204607 -0.16691965 -0.35894313 -0.12738802
000020 9f 16 25 be 29 2c e4 ba e7 ce 7d 3e 7e dd 7b 3e
       -0.1612191 -0.001740818 0.24785958 0.24596211
000030 86 66 1a 3d 92 58 1e 3e 26 48 68 be 52 c7 31 be
       0.03769543 0.15463474 -0.22683772 -0.17361191
000040 4b 41 01 be 9a 92 b2 be 92 d1 c0 bd 81 b2 f0 bd
       -0.12622564 -0.34877473 -0.09414972 -0.11752797
000050 b4 a5 87 3e 5d 41 3b be 49 08 b7 3d 3f a2 24 3e
       0.2649361 -0.18286653 0.08937127 0.16077517
000060 4c 02 eb 3d 53 88 38 3d 3d 6e f0 bd a4 42 29 bd
       0.114750475 0.045051884 -0.11739776 -0.04132332
000070 82 5f e0 3d 5d f1 53 be d3 8e 6b 3d 49 8f 03 3e
       0.10955717 -0.20697542 0.057509255 0.12847628
000080 fd 70 30 be fb 80 d7 be 55 fd d4 bc 0b 01 90 bc
       -0.17230602 -0.42090592 -0.025999704 -0.017578622
000090 2d ca 0f be 87 79 52 3d 6e ff 2e 3d b2 72 3b be
       -0.14041968 0.05138543 0.042724065 -0.18305472
0000a0 cd 7b 56 3e 89 6d e5 bc 31 76 bb 3e 19 bc 10 be
       0.20945664 -0.028006332 0.3661361 -0.14134254
0000b0 26 55 c4 be 6c 9d af 3e 0a c6 f1 3d e1 8b 32 be
       -0.38346213 0.3429979 0.11805351 -0.17436172
0000c0 a8 68 d4 b8 d9 a7 0c be d5 9e a3 3d c6 23 89 ba
       -0.000101284415 -0.13735904 0.07989279 -0.0010462932
0000d0 6e 8d f7 bd 05 49 ef bd f2 7b 41 be db 52 48 be
       -0.120875224 -0.11683849 -0.18894938 -0.19562857
0000e0 8f 06 03 bb c2 2a 98 3e 81 9e 41 be a2 88 c1 be
       -0.0019992923 0.29720122 -0.1890812 -0.37799555
0000f0 06 98 8f be dc 21 04 3e 94 0e 95 3e 44 ca e5 bd
       -0.28045672 0.12903541 0.29112685 -0.1122022
000100 d6 22 aa 3d 8d 35 e9 bb ae 11 e0 3d 3a 87 2b 3b
       0.08307426 -0.0071169795 0.10940872 0.002617313
000110 4e ee 68 be 63 85 96 be 64 22 50 be e8 6e 8c be
       -0.22747156 -0.2939864 -0.20325619 -0.27428365
000120 f9 59 33 3d 22 09 72 3b 65 47 a8 3d b9 7b 9a 3c
       0.043786976 0.0036931713 0.082167424 0.018857824
000130 f0 f4 90 3d 9e de cc bd a0 ec 24 be 0e 89 cc be
       0.07077968 -0.10003398 -0.1610589 -0.39948314
000140 42 91 8b 3c 5a cc 80 3d 3b 5d ca 3d 07 02 7b be
       0.017037038 0.06288977 0.098810636 -0.24512492
000150 a5 51 3b 3e 72 ec 28 be 56 6f 78 be 42 e3 b3 bd
       0.18292864 -0.16496447 -0.24261221 -0.0878358
000160 1f b4 37 3e 4f 1e 78 bd 86 c7 18 3e 91 63 6b be
       0.17939804 -0.06057578 0.14919862 -0.229872
000170 56 89 45 be 53 fe 4d bd df 18 28 3e e6 c8 f4 bc
       -0.19290671 -0.05029137 0.16415738 -0.029880952
000180 0c 3c a9 bd fa c3 91 3d 5f d4 61 bd 49 df 74 3d
       -0.08263406 0.07117458 -0.055134173 0.059783254
000190 09 b6 12 bd e3 b4 52 3e c7 82 62 3e f6 bd 8e be
       -0.035818134 0.20576815 0.221202 -0.27879304
0001a0 6d 04 7e bd ea 8d cb bd e0 2e b0 3d 0a 1d 52 3e
       -0.06201594 -0.09939177 0.08602691 0.2051889
0001b0 83 e1 21 3e ce bc 33 3e 11 c6 ca bd 94 a6 e1 be
       0.15808682 0.17552492 -0.099010594 -0.44072402
0001c0 3f 52 b5 bd 6a 39 34 be 24 f6 13 be 0d 96 03 be
       -0.08853578 -0.17600027 -0.14449364 -0.12850209
0001d0 8f 9c 44 3d bb 5a 5f 3c 07 02 8f 3e d3 d5 38 3e
       0.04800087 0.013632472 0.27931234 0.18050317
0001e0 ca 34 05 bd 41 ee 80 3d 22 cc 16 be b1 b8 d8 bd
       -0.032521047 0.06295443 -0.14726308 -0.10582102
0001f0 46 a6 b0 bb 40 15 68 bd 0f 22 b7 be a7 70 93 bd
       -0.005390915 -0.05666089 -0.35768172 -0.07199221
000200 23 41 15 3e cd 32 76 3e f1 41 ed 3b 79 f0 05 be
       0.14575629 0.24042816 0.007240527 -0.13080014
000210 6b 81 0c 3e 36 a8 49 3d d2 bc 21 3e 38 39 11 be
       0.13721244 0.049232684 0.15794685 -0.14181983
000220 6a d3 c0 3e cd a5 b7 bc f7 8d b0 be da 01 01 be
       0.37661296 -0.022417927 -0.3448331 -0.12598363
000230 ff 0b ad bd a3 c5 e6 bd e6 86 21 3e fe b2 0f be
       -0.08449554 -0.11268165 0.15774116 -0.14033124
000240 b2 99 d3 3e ff 83 75 3e 93 04 62 3e 96 0b 8d bd
       0.41328198 0.23976134 0.22072057 -0.068869755
000250 01 ae ac 3d cb eb d4 bd 1e 7b 5a 3e 60 6c e6 bd
       0.08431626 -0.103965364 0.21336028 -0.1125114
000260 a4 5d 81 bd 4c db 40 3b e6 ad a3 3d 77 4d 16 3c
       -0.06316689 0.0029427586 0.07992153 0.0091737425
000270 9f 9e b4 be 2e a3 09 3e a4 99 c4 bd 16 02 4d be
       -0.35277268 0.13441154 -0.09599617 -0.20020327
000280 c8 7d 6b 3d 61 85 5b 3e 63 a8 e8 bd eb 83 7a be
       0.057493 0.21437599 -0.11360242 -0.24464385
000290 9f 58 b7 3e 7b 2d 06 be b4 b7 58 be 4a c8 86 3e
       0.358098 -0.13103287 -0.21163827 0.26324683
0002a0 36 5c 75 3e 4a fc f5 bd ec c8 85 be 47 95 c9 bd
       0.23960957 -0.12011011 -0.26129854 -0.098429255
0002b0 69 4a bb 3d e2 3d a9 bc e2 f0 50 3e 66 d3 d2 3d
       0.09145052 -0.02065939 0.2040439 0.10294227
0002c0 47 d4 b2 be 4c ff b9 3e 36 a7 9f bd b4 48 d3 3d
       -0.3492758 0.3632759 -0.07795565 0.103166014
0002d0 de 81 56 3e b9 de 6e 3e 42 95 ce 3e e0 69 c4 3e
       0.20947978 0.2332715 0.4034825 0.38362026
0002e0 6e bf e0 3d 75 f5 91 3c 0d a6 3d be 14 8a bd bd
       0.10974012 0.017817238 -0.18520375 -0.09254852
0002f0 4c 9d 9a 3e a9 18 34 be 58 47 5e bd 30 5a 69 3e
       0.30198133 -0.17587532 -0.054267257 0.2278831
000300 9b d1 6e 3d 88 cd 97 bc ed c2 4b bd 6e 89 ef 3d
       0.058305364 -0.018530622 -0.049746443 0.116961345
000310 54 0b 2d bc 03 ac ae be 18 c6 8d be ed da 84 3b
       -0.010561783 -0.3411561 -0.27690196 0.0040544183
000320 a0 86 23 bd af e0 af be db f8 a6 be c1 b5 8c 3c
       -0.03992331 -0.34351107 -0.32611737 0.01717651
000330 86 77 ea 3d 7e dc 7a 3e 24 51 dd 3c 59 56 46 bb
       0.114485785 0.24498174 0.02701623 -0.003026387
000340 56 a3 2c be 9d c2 25 3d d1 1a 29 3d 37 04 c1 bc
       -0.16859183 0.0404688 0.04128534 -0.02356158
000350 27 60 c5 3d f2 ce 4a be 5d c2 90 bd b2 04 50 3e
       0.0963748 -0.19805506 -0.07068322 0.20314291
000360 5a 3b a1 bd 7b 04 9f 3d 08 2f 41 3e 67 e7 9e bc
       -0.078726485 0.077645265 0.18865597 -0.01939745
000370 91 1b 3d 3d 6c c9 b1 bd 1f 1e e7 bc fe 81 01 be
       0.046168867 -0.08680996 -0.028212605 -0.12647244
000380 df 80 51 bd ce cb 72 bc 46 61 92 be 3e 37 98 3d
       -0.05114829 -0.014819099 -0.2858984 0.074324116
000390 d9 55 a3 3d 99 85 73 3e 02 09 81 be ed 4b 0b bf
       0.079753585 0.23781432 -0.25202185 -0.5441273
0003a0 e7 1f 35 3c e3 ad 2a be 43 05 b0 3d ac ac 81 bc
       0.011054969 -0.16667895 0.085947536 -0.015829407
0003b0 a1 d1 ee 3c e6 28 1e 3e 28 bf 45 3e b7 5d 06 be
       0.029152693 0.15445289 0.19311202 -0.13121687
0003c0 06 aa 23 3b 6f 22 b1 bc 63 46 40 bd 68 75 0b 3e
       0.0024973168 -0.021622865 -0.046942126 0.13619006
0003d0 3d ed 24 3e 00 0f 97 be 18 fc 78 3e f6 41 d0 bd
       0.16106124 -0.29503632 0.24314916 -0.10168831
0003e0 17 44 12 3e 5a 71 30 3e 48 eb d5 bd 3f 88 82 3d
       0.14283787 0.1723074 -0.10445267 0.06373643
0003f0 26 c4 91 be 77 6f 8c bd 01 20 36 be 8a b9 a3 bd
       -0.28469962 -0.06857198 -0.17785646 -0.07994373

network_body._body_endoder.seq_layers.0.bias f4 [128]
000000 d2 45 e9 bb c8 b4 81 3c ef 24 d8 3c 79 bb 24 bd
       -0.007118919 0.015833274 0.026384799 -0.04021785
000010 8a 73 26 bc 82 8a 2a 3d 3e 30 9c 38 05 6b 62 bd
       -0.010159383 0.041635998 7.4476455e-05 -0.055277843
000020 49 88 eb 3c aa f7 5c 3d de da 8b 3c 2d f9 c9 bc
       0.02875151 0.05394713 0.017072137 -0.02465495
000030 1f 34 1a bb 1a 71 07 bc be a7 e5 bc 83 1f 34 3d
       -0.0023529602 -0.008266712 -0.028034087 0.043975364
000040 4b ed 42 3c f5 58 73 3c 76 5b 90 3c 3d af 7f bc
       0.011897395 0.014852752 0.017621737 -0.015605745
000050 c3 4e d3 3c 6c b5 35 bd 8a 6b d7 bc ee fd 8d bc
       0.025794392 -0.04436247 -0.026296396 -0.017332997
000060 fd 86 82 3b dc 80 5c bb a0 66 db bc e9 78 44 3d
       0.003983377 -0.0033646142 -0.026782334 0.04796687
000070 65 64 c1 3c 16 3a 7b 3a fd 41 11 bc de 58 c2 3c
       0.023607442 0.00095835456 -0.0088658305 0.023724016
000080 6e c6 f3 bc b3 68 43 3c 2f d2 a6 3c ef ff 14 bd
       -0.029757705 0.011926818 0.020363895 -0.03637689
000090 3d fc 8a 3c 51 18 98 3c 9d 9f 9d 3a 51 e8 21 bd
       0.01696598 0.018566282 0.0012025718 -0.039528195
0000a0 7d bd 52 bd 23 8e a8 b9 a7 c9 aa bc ac fe 41 bd
       -0.05145024 -0.00032149357 -0.020848108 -0.047362015
0000b0 11 62 5f bc fd 34 01 bd bc b2 6e 3c a7 92 fd bc
       -0.013634221 -0.031544674 0.014568981 -0.030953718
0000c0 2c c5 ad bb e7 c1 f7 3c 79 56 52 3d 80 22 52 bc
       -0.0053030457 0.030243827 0.051351998 -0.012825608
0000d0 67 28 19 bb 05 ef 53 3d c9 ef 43 3d a4 ac cf 3c
       -0.002337003 0.05174162 0.0478361 0.025350876
0000e0 a0 ca 2b ba 3b 33 69 3b 19 f3 bb 3c 21 9d 04 3d
       -0.0006553326 0.0035583514 0.022943066 0.032376412
0000f0 c7 fc e5 3c ea a9 2c 3d d0 dd 5f bc 02 6b e9 3c
       0.028074635 0.04215423 -0.013663724 0.028493408
000100 2c 47 8a 3b ca 88 0d bd 10 a9 00 bd 24 64 af 3b
       0.00421991 -0.03455428 -0.03141123 0.005352514
000110 3f 7e d8 3c 21 ff 91 bc e4 c8 41 3d 1e 1f 1a 3c
       0.026427386 -0.01782185 0.047310725 0.009406833
000120 2b 80 13 ba 3f 39 17 bd 19 3f f6 bc e8 c9 4f 3c
       -0.00056267035 -0.03691983 -0.030059384 0.012682416
000130 cf 7b 6f bb 0b 6d 31 3b 51 6f d4 bb 8f 85 e2 3c
       -0.0036542302 0.0027073051 -0.0064829965 0.027651576
000140 61 56 45 bd e6 ff 76 3d cc 03 5d 3c 04 57 99 bc
       -0.04817808 0.060302638 0.013489675 -0.01871825
000150 8a 5d 0e 3c f9 74 7d bd 3e 54 a2 bc 05 b9 b1 bc
       0.008689294 -0.061879132 -0.01981556 -0.02169467
000160 f5 74 2d 39 1a d3 df 3d d2 d8 71 bc 00 06 37 bd
       0.00016542136 0.10928936 -0.014761167 -0.044683456
000170 c6 f7 72 3d 43 15 8d bc 78 84 d6 ba 95 4e 5d 3c
       0.059318326 -0.017222052 -0.0016366383 0.013507505
000180 3d 6b 2a 3d 3d 27 1b 3d 04 51 50 3d 24 58 37 bd
       0.041606177 0.037879217 0.050858513 -0.04476179
000190 ba 20 40 bd af 33 ca bc 58 3c 96 3b 80 60 02 3b
       -0.04690621 -0.024682848 0.0045848303 0.0019893944
0001a0 5c b2 ad 3c 74 14 fc 3c e4 54 9f bc 17 6a 72 3d
       0.021203212 0.030771472 -0.019449659 0.059183206
0001b0 62 b6 1b 3c 06 ff 7f bc c4 ea c4 3c 40 05 9e bb
       0.009503933 -0.015624767 0.024037726 -0.004822403
0001c0 dc 3a 67 3c 95 fe 75 bc 08 f4 14 3c c0 03 d7 bc
       0.014113154 -0.01501431 0.009091385 -0.026246905
0001d0 89 7b 8e 3c b2 2b 50 3d b0 68 d8 3d 11 96 f6 3c
       0.01739289 0.05082292 0.105668426 0.030100854
0001e0 74 c8 cf ba 3d 33 3c 3c 88 75 61 3c 45 c2 43 bd
       -0.0015852586 0.0114868255 0.013760932 -0.04779269
0001f0 55 30 cf bc a5 7e f2 39 3e 59 26 3d 84 6c 87 3c
       -0.025291601 0.00046252194 0.04061245 0.016531236

network_body._body_endoder.seq_layers.2.weight f4 [128, 128]
000000 81 7a 75 bd f8 66 e9 bd dd 2d 31 3d f6 a8 94 3c
       -0.059931282 -0.11396593 0.04325663 0.018146973
000010 0f 01 52 3d 77 6a 3c bd c9 22 9a bd 8d 2a 0b 3d
       0.05127054 -0.04599997 -0.07526166 0.033976126
000020 a0 21 ad 3d 30 ae b5 3d e0 ac 06 3e 76 75 41 be
       0.08453679 0.08871114 0.13151884 -0.18892464
000030 3e 55 c3 bd 8d c1 21 bb 89 1b 5e 3d e0 e6 05 3e
       -0.09537743 -0.0024682016 0.05422548 0.13076353
000040 ea 76 ec bc e1 46 63 3d 6c 1f 5f 3b 31 79 b2 3d
       -0.028865296 0.055487517 0.0034045829 0.08714522
000050 12 72 39 bd 0f 89 3a bc e1 48 aa bd cf 7b 11 3e
       -0.0452748 -0.011385216 -0.08314682 0.14207385
000060 f7 87 91 bd e0 75 28 3e 71 fc 7b bd fe 95 a1 bc
       -0.07106011 0.16451216 -0.061520044 -0.019724842
000070 3e a2 ae 3c 5e 66 2b 3c 57 49 50 3e 5f a3 2c be
       0.021317597 0.010461418 0.20340477 -0.16859196
000080 df b4 d4 3c 86 39 79 be 20 f8 30 3d e1 51 ec 3c
       0.025965152 -0.2433835 0.04320538 0.028847637
000090 f4 71 9f 3b 35 af 79 3d 27 cf 3b be c6 87 21 3e
       0.004865879 0.060958106 -0.18340741 0.1577445
0000a0 0b 01 55 3e 54 db e4 3d 1d 63 10 bd 1c 4a 02 be
       0.20801179 0.11174646 -0.03525077 -0.12723583
0000b0 66 19 9d 3d b7 9e e3 bd 1d b2 1f 3e 31 0b 95 bd
       0.0767086 -0.11114257 0.15595289 -0.07277525
0000c0 d0 c2 07 3d 4f bf 98 bd 49 3d cc bd 2d 52 de 3d
       0.033144772 -0.07458364 -0.09972627 0.108555175
0000d0 6b 3b 4b bd 5c 51 24 be b3 4a 51 be a5 28 2b 3e
       -0.049617212 -0.16046661 -0.20438652 0.16714723
0000e0 12 ab 0b 3e 0f e0 3e 3d 99 c1 93 3d 20 ae 78 bc
       0.13639477 0.046600398 0.0721466 -0.015178233
0000f0 c0 08 7b 3d 07 60 8e bd e6 82 06 3e 1c 22 3f 3e
       0.06128764 -0.069519095 0.13135871 0.18665355
000100 92 0a 66 bd d4 2f 7a bd 26 ee a7 3d 7d d9 9a 3b
       -0.056162424 -0.06108077 0.0819972 0.0047256337
000110 01 2f d7 bd e0 34 37 3d 89 2f 71 3e 60 54 97 bd
       -0.10507012 0.04472816 0.2355329 -0.0738914
000120 f0 f8 30 3d 90 25 a9 3d 8e 0c 91 3d d5 54 f6 bd
       0.043206155 0.082591176 0.07082473 -0.12027899
000130 bc 08 40 3e 29 4f 9f 3d b1 10 19 3e 35 41 83 bc
       0.18753332 0.077787705 0.14947774 -0.016022304
000140 0d 0d ba 3c a5 22 36 3e 69 23 95 3d ee 9a 21 3e
       0.022711301 0.17786653 0.072821446 0.15781757
000150 a0 db 19 3d b0 7c c7 bd b4 51 c9 3d 1a bc e2 3c
       0.037562966 -0.09740579 0.09830037 0.027677584
000160 04 cd 9d 3d d2 cf 31 3e d4 4e b8 3d 44 91 17 be
       0.07705119 0.17364433 0.0899941 -0.14801508
000170 0a c7 be bc 86 51 f8 bd 4e 51 cd 3d f6 65 17 bc
       -0.023288269 -0.12124924 0.10025273 -0.009240618
000180 c5 eb 7a 3d 2b fa 25 be 28 bf 23 be c9 fe fc 3c
       0.061260004 -0.16208713 -0.15990889 0.03088321
000190 79 08 f8 3d dd 4c fe 3d 5e 90 83 3d 87 9b 83 3d
       0.12110991 0.12417004 0.0642402 0.06426149
0001a0 5d 66 ac bc 3f 12 f9 bc c1 29 09 3d 9c a4 82 3e
       -0.021044904 -0.030404208 0.033487085 0.25516212
0001b0 2e 72 37 3d 27 f5 67 3e f7 5b 8b bd da 2a ee 3d
       0.044786625 0.22652112 -0.0680465 0.11629267
0001c0 b2 67 7b 3e da b2 ad 3d 9e bf 34 3d 95 9e 82 bd
       0.24551275 0.08481379 0.044128053 -0.06377903
0001d0 8a 5d 15 3d 3c 0d c9 bd bc 14 4a 3e 88 fc 08 be
       0.03646616 -0.098169774 0.19734472 -0.13377583
0001e0 28 96 59 3d 90 7c d3 bc 38 c5 25 3d 47 36 19 be
       0.053121716 -0.025816232 0.040471286 -0.14962111
0001f0 06 00 86 bc 17 6a 80 3e 24 3e a1 bd 25 68 35 3d
       -0.016357433 0.2508094 -0.078731805 0.044288773
000200 73 e7 7b 3d c5 ee 87 bd 32 df 09 3e ef a5 53 be
       0.061500024 -0.066373385 0.13464049 -0.20668767
000210 d3 06 86 bd 7a 46 22 be bc 20 af 3d 0a f3 1a bd
       -0.0654427 -0.15847197 0.085511655 -0.037829436
000220 c9 a5 c9 bd 69 b9 f2 3d 6b e3 5d be be 68 37 bd
       -0.09846074 0.118517704 -0.21668784 -0.044777624
000230 2c 99 06 3e 14 3e 46 bd aa 55 b9 3b 54 f5 9f 3c
       0.13144368 -0.048399046 0.005655964 0.019526161
000240 3c 58 40 3c d7 87 1c 3d b6 f4 93 3d 45 ae 62 3d
       0.011739787 0.038215484 0.07224409 0.055341978
000250 e8 af 78 3d 0a 85 ac 3d 1c eb 29 be e6 ae 36 be
       0.060714632 0.08423813 -0.16593593 -0.17840156
000260 64 b1 e0 3d 26 cb d6 3d 36 b1 41 3d d0 a5 42 3e
       0.109713346 0.10487966 0.047288142 0.19008565
000270 4b 57 31 3c 05 6e 81 3c 51 e5 3c 3c ff e2 4c 3e
       0.010824035 0.015799532 0.011529283 0.20008467
000280 4e 90 0a bd 31 46 e0 3d 9c e0 07 3d a6 0e d7 3d
       -0.033829026 0.10950888 0.03317319 0.10500841
000290 c6 0d 8a bd 03 59 ff bc 84 ee 4f bd 2d 44 de bc
       -0.06740908 -0.031170374 -0.050764576 -0.027132118
0002a0 eb f1 d1 3c 3b fe b4 3b 6c 5e a3 bc ec e8 71 bd
       0.02562805 0.0055234707 -0.019942485 -0.059060022
0002b0 0a 0b 2d bc 09 27 a7 bc 41 10 2b 3d b0 5f 06 3d
       -0.010561714 -0.020404356 0.041763548 0.0328061
0002c0 a1 53 98 bc bf 5a 55 3d 21 02 1a be a8 de fe bd
       -0.018594565 0.052088495 -0.15039875 -0.12444812
0002d0 5f 15 49 bc e9 00 df bd 91 50 3e 3e c7 c0 a1 bd
       -0.012273162 -0.108888455 0.18585421 -0.078980975
0002e0 63 78 5b 3c dd b4 80 3d 7b e9 85 3d 03 56 51 be
       0.013395402 0.06284497 0.065386735 -0.20442967
0002f0 ec 60 83 bd c3 10 b8 3d 81 c7 ab bc 9a 40 02 3c
       -0.06414971 0.08987572 -0.020969154 0.0079499725
000300 9e ec 45 bd 36 1f c8 bc 2c 5a 61 bd 00 04 59 3d
       -0.04832136 -0.024428945 -0.055017635 0.05298233
000310 f5 fe e1 3c 54 63 8b bd cd b3 f1 3d b0 95 fe 3d
       0.027587393 -0.06806055 0.118018724 0.124308944
000320 ef 34 f1 bd a0 05 45 3d d5 7f 04 be 52 ae cd 3d
       -0.117776744 0.048101068 -0.12939389 0.100430146
000330 6b 8b 35 3e 08 ac 2a bd 48 2c 09 be b1 ba f2 3c
       0.17728965 -0.041667968 -0.13395798 0.029630037
000340 df 4e ea 3d 64 38 42 3d c8 bc 63 3d 7e dd 1b bd
       0.11440825 0.04741706 0.055599958 -0.03805303
000350 c7 6d 88 bd 2e b8 ed 3c e8 ac ac 3a d7 4b ed 3d
       -0.06661563 0.029018488 0.0013174089 0.11586731
000360 5d 96 99 3e ca b1 28 3d b0 47 a5 bd f6 2f 42 3d
       0.2999753 0.041185178 -0.08070314 0.04740902
000370 6f c2 4f 3c b3 36 df bd 36 5b 4a bb 9d 66 3c bd
       0.012680634 -0.10899105 -0.003087712 -0.045996297
000380 28 9a 97 3e c1 43 78 3e fb 8f 34 3d 4a 6b 3a 3e
       0.296098 0.24244596 0.044082623 0.1820499
000390 e0 04 da 3d 9c 36 23 ba 9f f8 5e 3c 4c 56 14 3d
       0.10645461 -0.0006226094 0.013609081 0.03621511
0003a0 ab dc 90 3b 9a 30 18 be 79 03 da bd 4c fd c4 bd
       0.004420837 -0.1486229 -0.106451936 -0.09618625
0003b0 0f 22 b3 ba 20 a3 40 be e2 63 cb bd a8 18 8b 3d
       -0.0013666766 -0.18812227 -0.099311605 0.06791812
0003c0 74 11 8f bb 86 4c 91 3d 0e a6 3f be 99 5e d2 3d
       -0.0043660942 0.07094674 -0.18715689 0.10271949
0003d0 42 1c ac 3d d0 cf 6f 3d 55 2c ff bd 66 bd 34 be
       0.08403827 0.058547795 -0.124596275 -0.17650375
0003e0 46 2f 9e bd 24 e3 64 3e bd b1 fa 3d b3 0f bd 3c
       -0.077238604 0.22352272 0.12240932 0.023078775
0003f0 96 03 90 3d c2 6c 13 3d ea 40 31 3e 8b 45 3d 3d
       0.07031934 0.03599239 0.17309919 0.0462089

network_body._body_endoder.seq_layers.2.bias f4 [128]
000000 f0 ec d6 3c 06 fc 48 3d c1 a6 81 3b d7 15 eb 3c
       0.026236027 0.049068473 0.003956646 0.028696937
000010 52 15 a9 bb 2b b3 5f 3c ca fa 16 bb 8f 66 bb 3c
       -0.0051600123 0.013653557 -0.0023037666 0.022876052
000020 43 ac af 3b 96 d1 9b 3c ff cb ef bb 02 b5 b3 3b
       0.0053611114 0.019020837 -0.0073180194 0.0054842243
000030 7e d8 70 ba c8 92 bc bc 98 10 47 ba 7c a8 69 bc
       -0.0009187533 -0.02301921 -0.000759372 -0.014261361
000040 85 8c 44 bc ef ec a5 bb 2f 76 b6 3c ad 91 51 3c
       -0.011996393 -0.005063645 0.022273151 0.0127910795
000050 5e a3 49 3c c0 df 3b 3c 96 f6 af 3c 74 02 95 bb
       0.012307016 0.01146692 0.021479886 -0.0045474116
000060 3b 0d dc bb ff 62 bc 3b 5d 43 da 3b 65 61 5f 3c
       -0.0067154444 0.005749106 0.0066608624 0.0136340605
000070 d2 06 fa bb b6 07 9b bc db a8 96 3c 74 4d 4b bc
       -0.0076302076 -0.018924575 0.018391063 -0.012408603
000080 c5 f8 95 bb 48 56 38 bc 37 38 cc 3b 68 1a a0 bc
       -0.004576775 -0.01125104 0.0062322873 -0.019543841
000090 7b 7d 99 38 94 21 0b 3d e4 b3 97 3b c8 08 c0 ba
       7.318981e-05 0.03396757 0.004629599 -0.0014651055
0000a0 de 51 2a 3b 7d ba 10 3d aa 6f 0c bd 4f df 95 3c
       0.0025988738 0.0353341 -0.03428618 0.018294958
0000b0 5f 10 81 3b aa ed 35 3d ac bf 00 3d 4b 1f 25 3c
       0.003938719 0.044416107 0.031432793 0.010078262
0000c0 d2 65 ab bc f6 08 13 bd 03 aa dd 3c 57 18 0b 3c
       -0.020922575 -0.035897218 0.027058607 0.00848969
0000d0 fa 09 05 3a a3 01 46 3c 0f 23 58 3c 2a c8 fb 3b
       0.0005075034 0.012085351 0.013191952 0.0076837735
0000e0 be 44 74 bc ee 14 1b bc 9c ff fc bc c2 24 4a 3a
       -0.014908968 -0.009465439 -0.030883603 0.0007711166
0000f0 6b fe 7e 3b 03 ff 21 3d 37 57 10 bc 83 f8 fb ba
       0.003890897 0.03954984 -0.008809856 -0.0019223843
000100 af 64 1a 3d 40 2d 93 3a 71 13 58 3c 24 b3 a9 3a
       0.037693676 0.0011228696 0.013188229 0.0012947065
000110 72 6c a5 3c b4 4b 19 3c 54 fe 85 3c 35 cb fa bb
       0.020193312 0.009356428 0.016356625 -0.0076536187
000120 d5 b4 9a bc a5 aa cd bb de 6e ca 3c fb 1e 2c bc
       -0.018885056 -0.006276446 0.024711069 -0.010505433
000130 04 fb 71 bc 40 e1 aa 3b 05 c3 12 bc 0e 76 a7 3c
       -0.014769319 0.00521484 -0.008957629 0.020442035
000140 29 b6 cb 3b b6 09 88 3c da 81 30 3c bd 34 09 3c
       0.0062167835 0.016606193 0.0107731465 0.00837439
000150 56 19 55 bc 9f bf 93 3c 04 e2 25 3b 2e f1 ba 3a
       -0.013006529 0.018035708 0.0025311718 0.0014262551
000160 26 f6 82 bc 03 eb d9 bc 98 2b 97 bb 25 e5 02 bc
       -0.015986513 -0.02660132 -0.004613351 -0.007989203
000170 25 79 7a 3c 65 ed d9 3c 55 2f 8f 3b bf 33 8b bb
       0.015287672 0.026602456 0.004369656 -0.004248112
000180 2b 20 54 bc ab 3b ec 3c d7 6d 26 3c ac f2 62 3c
       -0.012947123 0.028837046 0.010158024 0.013851803
000190 d1 10 07 39 28 23 17 3c a3 f5 36 bc 43 4d c6 bb
       0.00012880868 0.0092246905 -0.011166963 -0.006051691
0001a0 ef c3 f5 3b 38 a8 ad 3b a8 19 82 3a e2 d5 7b b9
       0.0075001637 0.0052995943 0.0009925859 -0.00024016903
0001b0 88 1e c3 3c 73 22 26 3b 4f ec c9 bc 06 ec c0 bb
       0.02381827 0.0025350123 -0.024648814 -0.005887511
0001c0 b6 83 ca 3c 7b 36 db bb 90 e5 d2 bb 29 09 9c 3b
       0.024721008 -0.006689844 -0.0064360574 0.004761834
0001d0 55 86 65 bc 00 8b be 3c af eb 8c bb 3a 58 15 3c
       -0.014009078 0.02325964 -0.0043005566 0.009115273
0001e0 56 cc 89 3b 39 56 52 3b 93 f8 37 bc d9 c5 87 3c
       0.004205267 0.003209485 -0.011228698 0.016573833
0001f0 58 a8 47 39 48 f2 85 bb 06 38 d9 bc 9e 98 03 3c
       0.00019040832 -0.00408772 -0.026515972 0.008031992

action_model._continuous_distribution.mu.weight f4 [1, 128]
000000 1d 83 63 be 53 5b 60 3e 57 12 f9 bd 8a 5c 45 be
       -0.22217984 0.21909837 -0.12161701 -0.19273582
000010 25 df b2 3d 4d 54 35 be 5b c8 1b be 6d f7 ef 3c
       0.08733968 -0.1770794 -0.15213148 0.029292786
000020 05 eb 17 3e 91 b5 39 bd d9 e7 21 bc 03 d7 05 3e
       0.14835747 -0.04533917 -0.009881937 0.13070302
000030 31 b0 37 be 6d dd 5c bd 04 9c a1 3d be 06 5c bd
       -0.17938305 -0.053922106 0.07891086 -0.053717367
000040 79 fc db bc 50 5d 79 3e 1e 91 0a be 9c 76 32 be
       -0.026853787 0.24352002 -0.1353192 -0.17428058
000050 9b 74 81 3e d8 d7 bc bd 43 6e 13 3e 52 5a 84 bd
       0.25284275 -0.092208564 0.1439753 -0.0646254
000060 f0 c8 8d 3e b0 39 d5 3d 3e 91 3b 3e fa b9 ea bd
       0.27692366 0.10411394 0.18317124 -0.114612535
000070 ea a3 0a bd de a8 13 be ab da 7e 3c b5 16 10 3e
       -0.033847727 -0.14419886 0.015555064 0.14071162
000080 d5 e2 0e 3e 47 5f 22 be 24 94 93 3d 0f 0f 53 3e
       0.13953717 -0.15856658 0.0720599 0.20611213
000090 88 e7 ca 3d e0 a5 f5 bd 13 83 a9 be c0 ef 27 be
       0.09907442 -0.11994529 -0.33107814 -0.16400051
0000a0 6a 28 ec 3c 02 83 3e bd 2f 62 c2 bc e0 eb 13 bd
       0.028827865 -0.046511658 -0.023728458 -0.03611362
0000b0 ca 8c f5 3d 61 1e f0 3c a7 3c 55 be 86 be d6 bc
       0.11989744 0.02931136 -0.20823918 -0.026213896
0000c0 ab d7 cd bd 09 e3 99 bc 8d 3f 0b 3c 38 73 15 be
       -0.10050901 -0.018785017 0.008499038 -0.14594734
0000d0 28 0f 49 bc 26 6f 2f 3d 8d 8d c4 bc dd f3 d3 3c
       -0.01227168 0.04283061 -0.023993278 0.025873119
0000e0 a3 a6 1d be d6 8f c3 3c b9 20 40 be 52 fe 96 3d
       -0.15395598 0.023872297 -0.18762483 0.073727265
0000f0 d2 14 11 be 4e 3a b4 3b b4 f6 c4 3b a6 e5 83 3d
       -0.14168099 0.0055001145 0.0060108546 0.06440286
000100 8d 47 0a 3e 37 27 c9 bc 71 17 1f be 8f 4b fc 3b
       0.13503857 -0.024554832 -0.15536286 0.007699437
000110 63 79 ce bd 92 5e b8 3b db c5 7b be 69 09 0a bd
       -0.100817464 0.005626508 -0.24587195 -0.03370038
000120 1e 0d bf bd be ae cd bd bf 19 9e bd 7d de 37 3e
       -0.09328674 -0.10043095 -0.077197544 0.17955966
000130 3a ef 16 be 6a 9c 04 bd e0 34 1b be 55 ab 4c be
       -0.14739695 -0.03237573 -0.15156889 -0.19987233
000140 be 87 7a bd 44 10 e0 bd 52 b5 94 bd 4f 38 a2 3d
       -0.06116461 -0.109406024 -0.072611466 0.07920896
000150 e8 fc 6d bb fd c5 b5 bd 57 56 04 3d 07 de 2a 3e
       -0.0036314074 -0.08875654 0.032308903 0.16686259
000160 11 52 aa 3d 3a 93 d9 3c a5 73 05 be 09 a1 60 3e
       0.08316434 0.02655946 -0.13032396 0.2193643
000170 e6 02 cd 3d 59 38 7c 3b 25 15 40 be 59 0a 3c 3e
       0.100103185 0.0038485734 -0.18758066 0.18363322
000180 7b 14 af bd f8 20 86 3e b6 1d 06 bd 36 1a b9 3d
       -0.08548828 0.26197028 -0.03274318 0.090382025
000190 d4 a7 17 3e 52 df a7 3d 32 a5 52 3e 2b fd 44 3d
       0.14810115 0.08196892 0.2057083 0.048093002
0001a0 df 36 a1 3d 6a e6 eb bd e2 9e d0 bc 00 a2 fa 3d
       0.07871794 -0.11518557 -0.025466386 0.1223793
0001b0 97 57 2b 3e 2f a3 1a 3e f4 76 e5 bd 73 cb fd 3d
       0.16732632 0.15101312 -0.11204329 0.123923205
0001c0 18 31 c6 3d 42 32 f9 3d cf 4e bb 3d 64 81 87 3e
       0.09677333 0.12167789 0.09145891 0.26465905
0001d0 b2 b4 43 3d 3f 54 02 3b 96 e5 6e 3d 2e 5f 65 bd
       0.047779746 0.001988664 0.05832442 -0.055998974
0001e0 07 59 ad bc cd a5 67 3e dc 78 ed 3d 98 5a bc bd
       -0.021160616 0.22621842 0.11595318 -0.09196967
0001f0 d4 61 20 bc 1f df 33 be 53 1f 82 bd 59 47 86 3d
       -0.009788949 -0.17565583 -0.06353631 0.06556577

action_model._discrete_distribution.branches.0.weight f4 [3, 128]
000000 03 6d 96 bc d7 f3 13 3b 17 e3 61 be 23 8a 39 bd
       -0.018362528 0.002257576 -0.22059284 -0.045297753
000010 f8 7c cd 3b 74 c5 9a 3d 38 53 6c 3c 22 4c 0f 3d
       0.006271001 0.075571924 0.014424138 0.034984715
000020 d5 ac 12 3e fd 38 da 3d 27 c0 55 3e 9f 19 ae bc
       0.14323743 0.10655401 0.20874082 -0.021252451
000030 53 0b 19 bb b0 07 14 3e 4e 76 bf 3d 5a 22 24 bd
       -0.0023352697 0.14456058 0.09348737 -0.040071823
000040 24 74 c9 bd 6f d8 87 3d 94 f1 dc 3d 95 8e c5 3c
       -0.09836605 0.06633078 0.10788265 0.02411584
000050 ea 5b 86 3d cb d9 0b be 76 2b 45 be 7a 8a a4 bd
       0.065605 -0.136573 -0.1925486 -0.08034225
000060 3b 7a 59 be 9b 6e 05 3e 49 bf 02 3c 7d b6 d1 3d
       -0.21238033 0.13030474 0.007980176 0.10239885
000070 2c f7 37 be 9f 59 81 be 54 1e d3 3d 3c 37 fc bd
       -0.17965382 -0.25263688 0.10308519 -0.123152226
000080 9c 64 23 3f 83 27 0f 3e 46 2a f5 bd e8 41 7b bd
       0.6382539 0.13979916 -0.11970954 -0.06134215
000090 21 50 8e be 6a d9 9d ba 76 40 52 bd f3 7a 5c bd
       -0.27795509 -0.0012042944 -0.051331006 -0.05382819
0000a0 b1 2a 89 be b7 37 96 3d fd 3a 79 3e 23 85 8e be
       -0.26790383 0.073348455 0.24338908 -0.2783595
0000b0 39 5e 59 be d6 de 09 bd 0c 56 8e 3c f2 02 22 bd
       -0.2122735 -0.03365978 0.017375015 -0.03955359
0000c0 39 5f d9 3e 90 48 8f be fe 6b 78 be b0 86 95 bd
       0.42455462 -0.27985048 -0.24259946 -0.0730108
0000d0 14 d9 9c bd 9e a7 e9 3b d1 8a 4e 3e 1f cb 1f 3e
       -0.07658592 0.007130577 0.20170142 0.15604828
0000e0 a2 bf 84 3d 07 2d 67 be ff e0 83 3d 2e 5d 9d bd
       0.064818636 -0.2257577 0.06439399 -0.07683788
0000f0 84 8a 2b bb 1b a0 67 be dd b3 af be 04 46 83 3d
       -0.002617509 -0.22619669 -0.34316912 0.06409839
000100 2c b4 58 be a2 2a 6e 3e ee 22 99 3d 75 ee 39 be
       -0.2116248 0.2325845 0.074773654 -0.1815737
000110 e7 a9 eb 3d 39 b3 ac 3e 08 eb e2 bd f8 f6 bb be
       0.11507016 0.33730486 -0.11079985 -0.3671186
000120 10 44 e3 3d 42 d9 9d 3d 0f 2f 37 be ee 81 18 3d
       0.11096966 0.07707454 -0.17889045 0.037233286
000130 92 79 6e be f2 5d 43 bd 9a 68 c1 3d 45 e4 86 bd
       -0.23288563 -0.047697015 0.09443779 -0.06586508
000140 5b b9 de bd c0 bc 93 3e 45 d2 43 3e ec 03 59 be
       -0.108751975 0.28854942 0.1912318 -0.21192902
000150 22 2c de 3d 59 76 d7 3d b9 22 15 bf 77 4e d3 3d
       0.108482614 0.1052062 -0.5825611 0.103177
000160 cf 90 9d 3e de 3c 91 be be 00 79 3d ac 90 2b 3e
       0.30774543 -0.2836675 0.060791723 0.16754407
000170 4b 24 96 bd 1c de 01 3e 34 a8 ce bd be 6f d1 bd
       -0.07331141 0.12682384 -0.10090676 -0.10226391
000180 c1 23 16 3d f2 8b 1b 3d 0f 1f 83 3d 2c 09 cd b9
       0.03665519 0.03797526 0.06402408 -0.0003910748
000190 ad f6 53 be a7 f5 71 be 4a c5 37 bd 4e 74 83 3e
       -0.20699568 -0.23628865 -0.044865884 0.2567467
0001a0 2b 6b 28 3f 8c 0b 93 3e 86 97 af bd c6 56 ad 3d
       0.65788525 0.28719747 -0.08573823 0.08463816
0001b0 4d 37 9f 3b ea 3d 51 bd c2 d1 76 3d 88 40 95 3e
       0.0048588873 -0.051084436 0.060258634 0.29150796
0001c0 a2 4d 75 bb 71 93 0d be 64 71 6f 3e 90 8c a8 bd
       -0.0037430306 -0.13825776 0.23383099 -0.08229935
0001d0 8d 5e 81 3d 66 1e 35 be 76 f1 67 3d ec f9 b6 be
       0.06316862 -0.17687377 0.05662676 -0.3573755
0001e0 e8 38 06 3e 69 96 04 be 94 c9 53 bd d2 34 60 bc
       0.13107646 -0.12948002 -0.05170591 -0.013684468
0001f0 b5 e9 0c 3e 21 71 a8 bd be fd 2f bd 7a 1f 5d 3f
       0.13761027 -0.082247026 -0.042966597 0.86376154
000200 59 01 c9 3c 70 ce ab bc 16 80 69 3e de ba 16 3d
       0.024536775 -0.02097246 0.22802767 0.036799304
000210 e0 bd bc 3c ae ca 13 3d f6 6d cb bd 24 96 3b 3e
       0.023039758 0.036081962 -0.09933083 0.18318993
000220 ae 75 e5 be cb 1d 0a 3c e6 57 1d be fa 63 20 3d
       -0.44816345 0.008429955 -0.15365562 0.039157845
000230 c0 a1 38 be f8 4d 77 be 0a 96 df bb 46 87 18 3d
       -0.18030453 -0.24150836 -0.006823306 0.03723838
000240 0b 6c 2b bd ca 31 a9 3c c8 bb 43 bd 4e fe ae 3d
       -0.041851085 0.020653624 -0.047786504 0.085445985
000250 9d d0 b5 be d6 14 6a 3e f6 fa 18 3d 1d 87 6f bd
       -0.35510722 0.22859511 0.03734871 -0.058478463
000260 64 e6 7a 3e 4f 57 a7 3e 24 29 eb bd b3 a3 fc 3b
       0.2450195 0.326838 -0.11482456 0.007709944
000270 8b 46 83 3e b0 44 9c 3e 93 8f 52 be 85 55 98 3d
       0.25639758 0.30521154 -0.20562582 0.074381866
000280 cb fd 51 bf cd 7e 1e be 69 2c 90 bd 17 b4 e5 bc
       -0.8202788 -0.15478058 -0.070397206 -0.028039975
000290 2e 94 1e bf 5f 65 4e bd 98 76 52 bd f7 34 bc bb
       -0.61944854 -0.050389644 -0.05138263 -0.0057436186
0002a0 de 4a 8a 3c b3 06 04 3e 32 8a d8 be 6c 32 8f 3e
       0.016881403 0.1289318 -0.42292935 0.27968156
0002b0 02 47 92 bd 17 e8 c8 3d e8 eb fa bd 2b e8 e5 3d
       -0.0714245 0.098098926 -0.12252027 0.11225923
0002c0 3e fa 35 bf 38 11 05 be 56 92 e6 3e 91 48 2f ba
       -0.71084964 -0.1299485 0.4503352 -0.00066865335
0002d0 cc fa 76 bd 01 b2 37 3d b9 d5 9f be 70 83 88 3b
       -0.060297772 0.044847492 -0.31217745 0.004166059
0002e0 3f ea c6 3d 86 f6 fa 3d 0d 0c 14 3c 57 9f 2f 3e
       0.09712648 0.12254052 0.009036076 0.17150627
0002f0 9c 98 80 3e 6d 08 02 bd 61 9b 9c 3e 8d 59 07 3d
       0.25116432 -0.031746317 0.30587295 0.033044387
000300 18 45 bb 3e a1 e4 4f 3d cc 46 0b 3d 57 11 a9 bd
       0.36576152 0.050755147 0.034003064 -0.082552604
000310 d4 58 81 3e 8e a7 e3 be ff 52 3a bc 8d 89 83 be
       0.25263083 -0.44463772 -0.011372327 -0.2569088
000320 60 5e 9e 3c 2b da d7 3b 80 c1 77 3e 36 e5 96 3c
       0.01933211 0.006587287 0.24194908 0.018419843
000330 87 08 e4 3b df 9d 6b 3e b8 3a de bc 8d a2 de bd
       0.0069590244 0.23009442 -0.027127609 -0.10870848
000340 e1 69 48 3c 03 be ed be 72 1c 49 3d ae 96 23 3e
       0.012232275 -0.4643403 0.049099393 0.15975448
000350 c6 15 08 3e 97 a3 9a 3d 8d 3a 04 be 65 83 8b bd
       0.13289556 0.075507335 -0.1291296 -0.06812171
000360 d1 11 b9 be dc 3e 9f 3e 6b 93 15 be 96 06 ab be
       -0.36146405 0.31102645 -0.14607017 -0.33403462
000370 2f 3a aa 3e a2 92 1d be 04 8c f3 3c 10 ac 01 3e
       0.33247516 -0.15387967 0.02972985 0.12663293
000380 bb cf 82 bd f0 a8 63 bd 42 e3 c8 3d 5b 6f 0b be
       -0.06387278 -0.055581033 0.09808971 -0.13616697
000390 40 06 c1 3c 49 86 af bd 98 21 1c 3d e2 f9 4f be
       0.02356255 -0.08570535 0.038117975 -0.20310166
0003a0 fe 03 7e 3e 3c d5 9a be 99 14 13 3d 4d e4 37 bd
       0.2480621 -0.3024081 0.035908315 -0.04489546
0003b0 47 6a 85 3d a1 14 0c 3d 8b 38 61 3d 77 a1 bf 3c
       0.065144114 0.03419936 0.054985564 0.023392422
0003c0 2c 75 21 be e8 28 ae bd f5 fd 11 3d d8 8f 91 bd
       -0.15767354 -0.08503896 0.035642583 -0.07107514
0003d0 79 c3 6b be ce ad 2f be bd cd c7 3d e0 5f cd bd
       -0.23023786 -0.17156145 0.09756038 -0.10028052
0003e0 4e 94 80 3c 1b 27 c3 3e b9 65 66 3e 50 34 b2 bd
       0.015695717 0.38115773 0.22499742 -0.08701384
0003f0 13 4b 75 be 17 1b 9a 3d 16 82 dd 3b 57 e6 87 3e
       -0.2395442 0.07524698 0.006759892 0.26542923

action_model._discrete_distribution.branches.0.bias f4 [3]
000000 16 a8 fa 3b f5 ba fc 3c 08 c5 0d bd
       0.007649432 0.030850867 -0.03461173

onnx::LSTM_116 f4 [1, 512, 128]
000000 7f b7 0e 3e b9 5c 15 3d ce 76 31 3d 34 37 e7 3d
       0.13937186 0.03646538 0.04332619 0.11289826
000010 25 eb 4e be 67 dd 19 be 4b ec 71 3d 29 de 32 3e
       -0.20206888 -0.15025865 0.059063237 0.1746756
000020 71 a5 30 bd 6c c2 74 3d 80 f2 42 bc aa a3 1e be
       -0.043126527 0.059755728 -0.011898637 -0.1549212
000030 c4 2e 37 3e 57 87 1c be 19 5b 0d bd 99 13 be 3c
       0.17888933 -0.15286003 -0.034510706 0.023202704
000040 33 14 00 3d 2a 01 67 bd 61 f2 dd 3d d3 8c 65 be
       0.031269263 -0.056397595 0.10837246 -0.22417001
000050 d2 93 80 3d 7c 4d 14 be 2b c6 16 3e 2e d5 59 bc
       0.062781945 -0.14482683 0.14724033 -0.013295455
000060 74 8c ff 3d f2 3b 98 bd 53 19 13 3e 44 8a 1c 3e
       0.12477961 -0.07433309 0.14365129 0.15287119
000070 39 ef d9 3c 0e 11 07 be 44 eb e6 3d 9c f3 8d bd
       0.026603328 -0.131901 0.11275342 -0.069312304
000080 a1 51 c5 3b 0e b1 8f 3c 27 06 89 ba aa 13 8a 3d
       0.006021694 0.017540481 -0.0010454104 0.06742032
000090 94 9c 99 3c 80 6d 28 3d 83 65 9d bd b7 8a c4 3d
       0.01875142 0.041120052 -0.076853774 0.0959677
0000a0 2e 50 33 3e 55 2f 19 3e cc f5 18 bd 54 20 0b be
       0.17511055 0.14959462 -0.037343785 -0.13586551
0000b0 03 05 d2 bc e1 16 03 be 76 c5 95 bd 2c 75 2d be
       -0.025637155 -0.12801696 -0.07313053 -0.16939229
0000c0 c1 19 f8 bd 20 bc f1 3d 1d 52 fa bc 93 66 05 be
       -0.12114287 0.1180346 -0.030556733 -0.1302741
0000d0 bd eb 27 3e c8 a1 db 3d 92 ef c1 bd f5 58 85 3c
       0.16398521 0.10724217 -0.094695225 0.01627777
0000e0 b5 8c 70 3e 25 4b f9 3d 33 6b 57 3c e5 64 c3 bd
       0.23491175 0.12172536 0.013148117 -0.095407285
0000f0 af 6e 16 be 90 4c f6 3b 7e aa 04 be c7 bb b7 bd
       -0.1469066 0.007516451 -0.12955663 -0.089713626
000100 4e d9 2f bd 21 e5 24 be 93 49 08 3e 4a 94 12 be
       -0.042931847 -0.1610303 0.13309316 -0.1431438
000110 23 b6 06 be f6 0d 9b 3d 95 89 09 be 14 9a 8a 3d
       -0.13155417 0.07571022 -0.1343139 0.06767669
000120 ed d7 4c 3e 30 01 29 bd 78 51 23 be af 07 a6 3d
       0.20004244 -0.041260898 -0.15949047 0.08106934
000130 5b 52 34 3e 98 29 13 be 94 ce 07 bd 36 82 32 bd
       0.17609541 -0.14371336 -0.033155993 -0.04358121
000140 f8 65 bc bd 73 ab 9c 3a 6b 41 42 3d 7a fc 1a be
       -0.091991365 0.0011952951 0.04742567 -0.15135375
000150 85 85 d7 3d 01 74 b8 3d b5 86 1e 3e c8 68 a5 bd
       0.10523514 0.09006501 0.15481074 -0.08076626
000160 ac 02 97 3d c9 b9 08 bc 1f 64 a6 bc 09 cb e9 3d
       0.073735565 -0.008345076 -0.020311413 0.11415679
000170 b2 f2 86 bc 24 76 16 be 37 90 15 bd 9d cf 26 be
       -0.016473148 -0.14693505 -0.036514487 -0.16290136
000180 06 27 89 bd be c6 f6 3d 9f c9 2b 3d 4a fb b6 bc
       -0.06696896 0.12049626 0.041940328 -0.02233662
000190 b6 1d d3 3d 1a 5c 25 bd 23 04 fc bd 20 ea e4 3d
       0.10308401 -0.040371038 -0.123054765 0.11177468
0001a0 c9 1e c7 bd bb cb 1d 3e 94 f8 9d bd 81 6a e7 3d
       -0.09722669 0.15409748 -0.07713428 0.11299611
0001b0 da 9a 55 bd 33 e2 12 3e 58 6b ff 3c 09 fa 3c be
       -0.05214963 0.143441 0.031179115 -0.18454756
0001c0 76 a8 ff bd a5 22 73 3d e4 fe f4 3d 14 45 94 bd
       -0.12483303 0.05935921 0.11962679 -0.07239738
0001d0 93 90 51 3c 33 b4 09 3c f5 13 cd bd e3 ca 5c bc
       0.012790817 0.008404779 -0.10013572 -0.013476106
0001e0 66 c9 f2 3d 4b 86 a2 bc c1 8a f1 bd 45 d2 e6 3d
       0.1185482 -0.019839427 -0.11794043 0.112705745
0001f0 c8 99 6c bd 7e 87 d4 3d 14 94 43 3d 13 31 14 be
       -0.057763845 0.103774056 0.04774864 -0.14471845
000200 1f 45 16 be 59 d0 bd bd 1f 2b f6 3d 03 2c 08 3e
       -0.14674805 -0.09268255 0.120199434 0.13298039
000210 48 b8 83 3d c1 4f 0d 3e 32 3f bb bc 24 0c 6a bd
       0.06431633 0.13799955 -0.022857282 -0.057140484
000220 cd 33 32 3e 50 fa de bc 0b e8 38 3d e5 63 fb 3b
       0.17402573 -0.027218968 0.04514317 0.0076718205
000230 bc 84 43 bd 1e 01 a7 3d 0f 4c 59 3e c1 82 2d bd
       -0.047734007 0.0815451 0.2122042 -0.042361025
000240 1f 7e 83 3d e7 a7 0a 3e 80 48 0a be f4 19 a5 3d
       0.0642054 0.13540612 -0.13504219 0.08061591
000250 6e a5 bc 3d 87 71 a8 3d ef 4e 48 3d 8c 87 20 3d
       0.09211241 0.082247786 0.048903402 0.039191768
000260 4c 95 6e 3c ba e1 28 3e 14 2c e2 3d 82 81 d0 bd
       0.014561962 0.16492358 0.110435635 -0.10180952
000270 c1 39 01 bd 8d 7a f8 bd 3a c9 08 bd 60 74 44 3d
       -0.03154922 -0.1213275 -0.03339503 0.047962546
000280 da 16 7a bc 4e 12 2c be 87 e9 3b 3d 11 41 34 3e
       -0.015264237 -0.16803858 0.045877006 0.17602946
000290 7e c7 30 3e 1c c9 02 3e e7 31 03 3e 0b ab 56 bd
       0.172636 0.1277203 0.12812005 -0.052409213
0002a0 ee 7d da 3d 34 fd 2f 3a 02 ce c9 bd 5c 2d 1d 3d
       0.106685504 0.00067134504 -0.09853746 0.038373336
0002b0 57 88 f0 3d 89 15 3b be 21 a3 9d 3d 8b 20 0d 3e
       0.11744755 -0.18269934 0.0769713 0.13781945
0002c0 b5 6c 9b bd fa 56 b3 3d 7f 71 f1 3d 9a 4c 31 3e
       -0.075890936 0.08756824 0.11789226 0.17314377
0002d0 46 e3 6d 3d be af f0 bd 5b a3 95 bc e4 a8 8a 3d
       0.058078073 -0.1175227 -0.01826637 0.067704946
0002e0 d7 0b af 3d 65 b9 94 bd f6 ba 93 3c 37 88 13 3e
       0.0854718 -0.07261924 0.018033486 0.1440743
0002f0 00 a9 93 3b fe 79 8b bd 55 f9 a2 3c 51 c4 02 be
       0.0045062304 -0.068103775 0.019894281 -0.12770201
000300 36 25 15 3e cc 0c 2d 3e 90 22 b3 3d 90 9a 0c 3e
       0.14564976 0.16899413 0.08746827 0.13730836
000310 75 71 47 3c 28 00 b1 bd 79 7c 1b 3d 34 7c ef 3d
       0.012173046 -0.08642608 0.037960503 0.11693612
000320 85 a9 89 bd be b7 22 3e e4 c2 1f bd 35 2e 71 3d
       -0.067217864 0.15890405 -0.03900422 0.058881957
000330 d0 1a 98 bc 89 6c f5 3d 43 f2 24 3e 8a ae 64 be
       -0.018567473 0.11983592 0.1610804 -0.22332206
000340 ba 35 06 3e 6c fd 0d 3e c4 c3 c5 bd 7c f2 8b 3d
       0.13106433 0.13866204 -0.0965648 0.068333596
000350 31 3b 4e 3d 01 bd c1 bd 66 b9 23 be b4 ae b0 3c
       0.050349418 -0.09459878 -0.15988693 0.02156768
000360 a9 68 8a 3d 18 64 37 3e 98 7b a0 bc 7f 27 2e be
       0.067582436 0.17909276 -0.019590184 -0.17007254
000370 26 44 85 bd b7 cc fa bb f3 72 fb bd 23 64 06 bd
       -0.06507139 -0.0076537984 -0.12277784 -0.03281034
000380 f2 c8 9a bd ce 3f 41 3d 73 96 ff bd b5 e6 ae 3c
       -0.075578585 0.04717999 -0.12479868 0.021350244
000390 2c 00 98 bd 51 51 51 bd 4f 81 4b 3d 4d 09 35 3e
       -0.07421908 -0.05110294 0.049683865 0.17679329
0003a0 92 87 a7 bd c5 f3 1b 3c 99 14 75 3e fd 40 89 bb
       -0.08180155 0.009518568 0.23933639 -0.0041886554
0003b0 cf cc d6 3d f7 6e cc bd 44 a4 9c bd fc 07 17 3e
       0.10488283 -0.09982102 -0.07648519 0.1474914
0003c0 a1 ff 07 3e 6d 3c 86 3c 0d e0 4b 3d 60 d0 03 be
       0.13281108 0.016386235 0.04977422 -0.12872458
0003d0 2e 4a eb 3c 88 f9 41 bd 8d 40 b8 bd ee 44 73 3d
       0.028721895 -0.047357112 -0.08996687 0.05939191
0003e0 81 98 ea bd cc 05 7b bd b4 99 df 3d 70 32 23 be
       -0.11454869 -0.061284825 0.109179884 -0.15937209
0003f0 17 a1 18 be 76 21 13 bd 6e bb 97 bd 99 ec 6d 3c
       -0.14905201 -0.035920583 -0.07408796 0.014521741

onnx::LSTM_117 f4 [1, 512, 128]
000000 c8 e9 9f bd 18 e2 2c be 8d 16 f1 bc d3 c2 d5 bb
       -0.07808262 -0.16883123 -0.029429698 -0.006523469
000010 1b 1d 13 3e 2d 58 87 3d 89 4f 8d 3d 0e ac ed 3d
       0.14366572 0.06608615 0.06899936 0.116050825
000020 2c f0 15 3d 42 0d d0 bd 12 a4 09 be dd f1 ea 3a
       0.036606 -0.10158779 -0.13441494 0.0017924864
000030 ad 91 21 bd 65 2c 28 3d a8 8c 42 be ca dd 05 bd
       -0.039445568 0.041057963 -0.18998969 -0.032682218
000040 b2 59 06 bc 55 c9 34 be d6 4e 6e bd 0f df 30 3c
       -0.008200096 -0.17654927 -0.058180653 0.010795369
000050 34 1f e2 3b 10 93 dc 3d d6 1a eb 3d fe 5e f6 bd
       0.0069006924 0.107702374 0.11479728 -0.12029837
000060 0a 2b 6a bd 25 01 89 bd 88 1a 00 be d9 e4 d2 3d
       -0.05716995 -0.066896714 -0.12510121 0.102975555
000070 c5 9b 04 be b7 9b 11 be 75 84 d2 3d 8d 59 1e 3e
       -0.12950046 -0.14219557 0.102791704 0.15463848
000080 d7 ba e2 bd 27 66 eb 3d d5 ac 3d 3d e1 1d 2d 3e
       -0.11070793 0.114940934 0.046307404 0.16905929
000090 d7 51 38 bd a1 fa 88 3c ab 47 cc bd 83 33 e1 bd
       -0.044999924 0.016721072 -0.09974607 -0.10996153
0000a0 f7 de b6 3d ec 32 1f bd 71 22 80 3d 32 bf 94 bd
       0.08929246 -0.038866922 0.06256569 -0.0726303
0000b0 bf e8 99 3b 02 77 cd 3c 16 1f f5 bd 6b 8c 1e 39
       0.004696935 0.025081161 -0.1196882 0.00015120364
0000c0 e1 6e 40 3e 5a 35 08 be 17 1c 31 be 86 3f 49 bd
       0.18792297 -0.13301602 -0.17295872 -0.049132846
0000d0 80 14 e1 3d f1 c3 70 bd 6f 82 18 3e 29 41 0b be
       0.10990238 -0.058780614 0.14893506 -0.13599075
0000e0 92 25 7b 3d 16 ac e3 bd 0f cf 89 bd 78 8f f0 3d
       0.061315127 -0.11116807 -0.067289464 0.117461145
0000f0 80 d1 a0 3c 1a df c2 3d f1 ca a6 bd 8b c2 b7 3d
       0.019631147 0.095152095 -0.08144177 0.08972653
000100 41 f8 e2 bd 3f d0 17 be f7 86 58 3b 3d 02 44 be
       -0.11082507 -0.14825533 0.003303943 -0.19141479
000110 1a 2b 1e 3e 7f 60 1a bd 61 58 6f 3d 5b d7 82 3d
       0.1544613 -0.037689682 0.058433894 0.06388732
000120 0a 96 12 3e 4e b6 2a bc 20 62 03 3e 49 ea 61 bd
       0.14315048 -0.010419441 0.128304 -0.055155072
000130 9e 93 90 3d 7b 3c 2e bd 54 4e a4 3d 84 f4 3c bd
       0.07059406 -0.042538147 0.080227524 -0.046131626
000140 ed 5d 1d be fe b8 98 bc 01 a8 e4 3a 4d f1 a5 bd
       -0.15367861 -0.018642899 0.0017445089 -0.08102665
000150 e7 94 fd 3b 8a 00 24 3e 78 77 20 bc b0 e0 53 3d
       0.007738698 0.1601583 -0.009794109 0.05172795
000160 40 7a 00 3e b1 3b 10 bd 84 56 17 3e ef 9c c9 3d
       0.12546635 -0.035213176 0.14779097 0.09844386
000170 63 cc 46 be 2b 12 fd bd 1e fe de 3d c3 14 0d be
       -0.19413905 -0.12356981 0.10888313 -0.13777451
000180 c4 68 e6 bd a5 a3 28 bd 82 cc 63 bd b4 46 42 3d
       -0.11250451 -0.04117169 -0.055614956 0.04743071
000190 ce 1a cb bd 0a 48 b5 3d 3a c1 d9 bd 1c 21 de bd
       -0.09917222 0.08851631 -0.10632558 -0.10846159
0001a0 0e 04 5b be 0c 9a ef 3d 82 be 7f 3d 1a 3b 8e bd
       -0.21388265 0.11699304 0.06243754 -0.069448665
0001b0 b3 a2 d3 3d a6 60 06 3e 3e 59 d2 3d 08 10 94 3d
       0.10333767 0.13122806 0.10270928 0.0722962
0001c0 64 c4 32 3d a1 48 59 3c 0e 21 25 be eb a4 6f bd
       0.043644324 0.013261945 -0.1612589 -0.058506887
0001d0 25 b4 70 bb f0 5e c2 bd 74 d3 4a bd b0 09 6d 3d
       -0.0036728468 -0.09490764 -0.049518064 0.057870567
0001e0 01 b2 0d 3e e7 25 1a be d7 43 14 3e af 55 39 3e
       0.13837434 -0.15053521 0.14479004 0.18099092
0001f0 49 f1 93 bc 68 dc 9c bd c4 b0 01 be 9c db fd bd
       -0.01805939 -0.07659227 -0.12665087 -0.12395403
000200 d6 06 95 bd b3 ca 42 bd 12 3a 1d 3e d2 1c 56 bd
       -0.072766945 -0.04755659 0.15354183 -0.05227358
000210 19 e3 16 3d 74 b1 93 3d 00 f5 2d bd a8 8c 73 3d
       0.03683767 0.07211581 -0.04246998 0.059460312
000220 f4 81 54 3d 26 53 f7 bc 48 e2 0a be fd d5 8c 3b
       0.051881745 -0.030191015 -0.13562882 0.0042979703
000230 67 01 5d be 32 d0 38 be e9 44 eb bd 3a 88 80 bc
       -0.21582566 -0.1804817 -0.11487753 -0.015689958
000240 c3 ea 65 bd 69 b8 89 3d 33 49 fc bd a8 c8 ba 3d
       -0.05613209 0.067246266 -0.12318649 0.091203034
000250 cf 2c f4 bd 2c 13 c5 bd a3 6a d3 3c ac 5d 0c 3c
       -0.11922609 -0.09622797 0.025807684 0.008567255
000260 eb 09 cd bc 9f 19 b4 3d 78 33 1a be 8d 62 49 bd
       -0.025029143 0.08793949 -0.15058696 -0.04916625
000270 b8 55 ad 3d 16 a3 c4 3d 1a 6a 35 bd 5b 22 c4 3c
       0.08463615 0.09601419 -0.04429064 0.023942163
000280 3f 90 52 bd 9a 02 6c 3d 8f f5 15 3e 4b fe f9 bd
       -0.051407095 0.05761967 0.14644454 -0.12206706
000290 be 50 bf bd d9 04 25 3e b3 0d d8 3d e3 bb 3b 3d
       -0.09341572 0.1611513 0.10549488 0.04583348
0002a0 8e ff 37 be 13 2f ed bd c7 76 7a bc d6 e9 7b bd
       -0.1796858 -0.11581244 -0.015287108 -0.0615023
0002b0 55 18 ae 3d dd 9d 3c 3d 23 5f 18 3e fc 2b a6 3d
       0.08500735 0.046048988 0.14880042 0.08113858
0002c0 ed 12 86 3d c8 28 ac 3d fb 53 0f 3e 2c e5 9e 3c
       0.065465786 0.08406216 0.1399688 0.019396387
0002d0 b6 69 02 be b5 b4 1b 3e 25 b5 c8 3d 31 c4 05 3e
       -0.12735638 0.15205653 0.098001756 0.13063122
0002e0 d6 d4 4d be a9 3a 00 be d3 6d 5a 3d c5 24 37 bd
       -0.20100722 -0.12522377 0.053327393 -0.0447128
0002f0 a9 4e a9 bd 8a 9e fd 3d f7 76 87 bd 8a 5d 92 bc
       -0.08266956 0.123837546 -0.066144876 -0.017866869
000300 72 a9 10 3e 83 97 f6 3d fc f8 34 bd 9c 11 71 bd
       0.14127138 0.12040617 -0.044182763 -0.058854684
000310 6f 74 07 bd d1 3e f1 3d 5d ce f1 3d 1e e5 91 bd
       -0.033070024 0.117795594 0.11806939 -0.07123779
000320 c3 24 8c bd 8b 1c 19 bd b0 f0 46 bd eb aa e6 bd
       -0.06842949 -0.037380736 -0.04856938 -0.11263069
000330 e8 09 6b bd 6f 44 a8 3d d4 c2 30 3e 2d 89 9d bc
       -0.057382494 0.08216178 0.17261821 -0.01923045
000340 56 d8 69 bd 6c 5e 9e 3d 7c 50 29 bd 83 a3 b6 bc
       -0.05709108 0.07732853 -0.04133652 -0.022294765
000350 3c 7e 53 3d fe 7b 09 3c 67 9e 01 be e3 2d ad bb
       0.05163406 0.008391378 -0.12658082 -0.005285011
000360 ba 20 0d 3e ea 4b 84 bd 14 0f 4b 3c df 43 26 3c
       0.13782015 -0.06459792 0.012393732 0.010148018
000370 f3 14 db 3d b5 51 11 3e 0c 92 d4 3d 0b ba 60 3e
       0.10697355 0.14191325 0.10379419 0.2194597
000380 02 40 28 3d c1 53 b0 3d 8f e5 18 3e 4b 67 6b 3d
       0.041076668 0.08609725 0.1493132 0.057471555
000390 b6 f3 07 3e c6 89 4d be f7 2c 97 bd 17 ee f1 3c
       0.13276562 -0.20072088 -0.07381623 0.029532475
0003a0 35 e9 a9 3c a2 f8 f2 3d 17 32 2c 3d 28 c8 7a bd
       0.020741085 0.11863829 0.042039957 -0.06122604
0003b0 a5 11 1d 3e 04 07 5a bd b4 fe fb bd cc 6d e7 bd
       0.15338762 -0.053229347 -0.1230444 -0.11300239
0003c0 2a cb b2 3d fd 8a da bb 81 78 a6 3b 26 c8 1e bc
       0.08730157 -0.0066694007 0.005080283 -0.009691274
0003d0 27 67 fe 3d aa f0 ff 3d 70 c9 c8 3d 77 57 72 3d
       0.124220185 0.12497075 0.09804046 0.059165444
0003e0 8a 75 c3 3d 71 69 09 3d c7 06 0d be 02 c8 34 be
       0.09543903 0.033547822 -0.13772117 -0.17654422
0003f0 a8 e4 a4 3d 30 c9 54 bc 4d d9 01 be ab 83 41 3c
       0.08051425 -0.01298742 -0.1268055 0.011811177
