Assets/Brain_Models/2P_brain_0727_2.onnx (onnx, 618149 bytes, 10 tensors)

network_body._body_endoder.seq_layers.0.weight f4 [128, 30]
000000 ba 3b 29 3e 71 75 36 be c9 e9 0f 3e e4 a4 0e be
       0.1652669 -0.17818238 0.14054026 -0.13930088
000010 c3 46 af 3e 92 89 46 be 11 dd 84 bc c8 eb 08 be
       0.34233674 -0.19388416 -0.016218694 -0.13371193
000020 2a c9 d9 3d 28 88 0a 3e 24 f2 db bd e5 80 52 bd
       0.10634072 0.13528502 -0.10739544 -0.051392455
000030 be fd b6 3d d1 29 b7 3c 03 ce 27 3e 50 90 2b be
       0.08935116 0.022358807 0.16387181 -0.1675427
000040 bf 21 26 be a7 b0 3b 3e a8 f8 a9 3d ff 5e 91 3e
       -0.1622381 0.18329106 0.082993805 0.2839279
000050 42 c2 d3 3e 2c eb 02 be a6 4e d9 bc c0 be bd bc
       0.41359144 -0.12785023 -0.02652676 -0.023162246
000060 3a 62 c7 3c 91 92 1d bd 1d b8 01 bd ce b0 26 be
       0.02433883 -0.038469855 -0.031669725 -0.16278383
000070 ae 85 1f be 03 15 8c 3c 50 f5 46 3e 18 25 58 3e
       -0.15578339 0.017099863 0.19429517 0.211079
000080 2e eb 6b 3e 5a c0 a9 bd 7a 8d f6 bd 62 ff 44 bd
       0.23038933 -0.08288641 -0.12038703 -0.048095115
000090 9e 71 ad be bc 8e 5b 3d cc 85 55 3c 4f 74 b1 3c
       -0.33875746 0.05360292 0.013032388 0.021661906
0000a0 b5 05 cc bd 41 68 b1 be 30 7c 2c 3e 8c 29 02 3a
       -0.09962026 -0.34649852 0.16844249 0.00049652974
0000b0 69 d5 66 be 50 3a fd 3c 37 2d 14 be 52 bd c6 3e
       -0.22542347 0.030911595 -0.14470373 0.38816315
0000c0 de 99 19 3e 3e da 9d 3e c7 1d bf 3a 64 f8 46 be
       0.15000102 0.30830568 0.0014581018 -0.19430691
0000d0 75 6a 94 3d ef 4f f1 3d 59 98 02 bc 90 3e 18 be
       0.072468676 0.11782824 -0.007970893 -0.14867616
0000e0 f1 55 8c 3e ec 9c f8 3d 04 9f 0e be 4f f4 c7 be
       0.27409318 0.121393055 -0.13927847 -0.3905358
0000f0 d2 fa 99 be a8 2e 54 3d d7 06 8a 3e 30 5c 44 be
       -0.30074173 0.051802307 0.26958343 -0.19175792
000100 54 10 98 3d 35 6c 5c 3e 59 1e 2a be 13 27 2a 3d
       0.07424989 0.21525653 -0.16613139 0.04154117
000110 5b 39 6e be 73 0a 73 3c 26 f8 b2 3e 18 81 a0 3d
       -0.23264067 0.014834034 0.34954947 0.07837123
000120 e6 86 f6 3e bd 14 67 3e 73 5e cd be 1e 48 a7 3d
       0.48149794 0.22566505 -0.40111122 0.08168052
000130 5d b9 a2 be be 11 1a be fc 2d 67 3e 50 76 65 be
       -0.31782046 -0.1504583 0.22576135 -0.22408414
000140 0e e9 81 3e 7e cb 25 be 6e b2 37 be f9 3a a5 bd
       0.2537312 -0.16190907 -0.1793916 -0.08067889
000150 65 e8 43 bd 73 fc 44 be 25 5f 9c be a2 41 8e be
       -0.04782905 -0.19236927 -0.3054134 -0.2778445
000160 a9 17 88 be 83 df cd 3c 1e a9 2e be 96 e4 6a 3e
       -0.2658055 0.025130993 -0.170567 0.22938761
000170 d6 7f 26 be c3 32 cc 3b fc aa 0b be 8a ec 72 3e
       -0.16259703 0.006231637 -0.13639444 0.23723045
000180 d6 c4 9a be 3c 0f a8 bd 17 70 5f 3e e7 5a f7 3d
       -0.302283 -0.08206031 0.21820103 0.12077885
000190 b2 20 80 bd a9 36 5c be ef df 4e bd 68 43 1a 3d
       -0.06256236 -0.21505226 -0.05050653 0.03766194
0001a0 78 db be 3d fa 5f b1 ba 58 0f 80 be d6 e2 ae bd
       0.09319204 -0.0013532632 -0.25011706 -0.08539359
0001b0 f0 e8 48 be f7 2a 5f 3e ba 47 ee bc 3f 87 ac 3e
       -0.19620109 0.21793734 -0.029086936 0.33696935
0001c0 43 a6 50 3e 53 44 74 bd 94 d5 52 3d 0f 91 c0 3c
       0.20375924 -0.05963547 0.051473215 0.02350667
0001d0 9a 77 35 3e c1 85 a5 3e 24 94 02 be 08 09 81 3e
       0.17721406 0.3232861 -0.12751824 0.25202203
0001e0 f4 44 7c 3d 93 9b d6 3e d9 9f 4e bd c7 20 39 3e
       0.061589196 0.4191557 -0.05044541 0.1807891
0001f0 24 cf c8 bd 20 64 9c 3b 7d 55 74 be 59 82 9a be
       -0.09805134 0.004772678 -0.23860736 -0.30177572
000200 66 d7 2e 3d e1 61 cd bd d9 d9 08 be ff ae 10 3e
       0.04268589 -0.100284345 -0.13364352 0.14129256
000210 eb 1f 69 be c8 45 18 3e da 56 3c 3d 44 f4 14 3e
       -0.22766082 0.1487037 0.045981266 0.14546305
000220 9f c2 af bd 10 96 36 3c 57 8b 4f be 21 15 0a bd
       -0.08582043 0.011144176 -0.20267998 -0.033711556
000230 48 d4 85 3d bd aa 7d bd cc ca 06 be 99 1f 8d 3e
       0.0653463 -0.061930407 -0.13163298 0.2756317
000240 5c fc a4 be 53 c0 4b be 6d ee a6 be 18 f1 9d bd
       -0.32223785 -0.19897585 -0.3260378 -0.077120006
000250 74 1a 34 3c 4d 12 63 3e 27 4f bd bd 24 9a fd 3d
       0.010992635 0.2217495 -0.09243613 0.123829156
000260 93 a8 63 3d 2c 52 02 3e f8 b1 30 be a9 67 f6 bd
       0.055580687 0.12726659 -0.1725539 -0.1203149
000270 b9 b3 0d 3e 41 89 11 be c4 ce 4d 3e 5e c7 90 bd
       0.1383809 -0.14212514 0.20098406 -0.07069276
000280 ad 46 5f 3e 4e 89 f4 3d 1f c8 04 3e d3 cd 5b 3d
       0.21804304 0.11940251 0.12966965 0.053663086
000290 05 6d 19 3e 0d ac ab 3d 42 5c 19 3e 1e 22 b5 3d
       0.14982994 0.083824255 0.149766 0.08844398
0002a0 10 f9 0e bb e0 50 8b bc 6b 90 64 be 09 d2 65 be
       -0.0021815933 -0.017006338 -0.22320716 -0.22443403
0002b0 d3 2c 25 3e fd 5c c8 bc b1 4d 9c 3e a0 3e 61 3e
       0.1613038 -0.024458403 0.30528024 0.21996546
0002c0 ee da 93 3e 25 39 28 3e fe 00 e0 3c 39 96 57 3d
       0.28877968 0.16428049 0.027344223 0.052633498
0002d0 29 51 92 3d 21 6c e0 3c c2 9d 33 be 76 d0 f2 bc
       0.07144386 0.02739531 -0.17540649 -0.029640418
0002e0 34 c9 42 3d cd 55 4c be 0e e4 90 3d c2 9d 20 3e
       0.047555164 -0.19954605 0.07074748 0.1568518
0002f0 b7 3d c5 bd 16 db 13 3e 5a 35 f7 3d 0f f0 6c be
       -0.09630912 0.14439043 0.12070723 -0.2313845
000300 93 a7 74 3e 62 f5 2f be 35 a0 db 3c 35 5d 19 bd
       0.2389205 -0.1718345 0.026809791 -0.037442405
000310 e8 9b 96 bd 78 f2 ce bd ee 75 2a bd ae 46 ea bd
       -0.073539555 -0.10104841 -0.041616373 -0.11439262
000320 92 39 4d be ed 39 8f bd 46 d2 81 3e cc f2 ab bd
       -0.20041493 -0.0699347 0.25355738 -0.08395919
000330 3d 37 56 3d 8d 66 08 3f 8e 7a b4 be 51 64 14 3e
       0.052298773 0.5328148 -0.35249752 0.14491393
000340 98 81 82 bd cd a7 26 be 4b 84 f0 3d 8d bd 26 bd
       -0.06372374 -0.16274948 0.11743983 -0.040708113
000350 c1 c8 3a 3e f8 ea ea bd ac 23 df be 87 ab 8c 3d
       0.18240644 -0.11470598 -0.43581903 0.06868654
000360 a7 d4 7e be c5 ad 31 3d e8 52 8b 3e a1 d4 3a 3e
       -0.24885808 0.04337861 0.2721169 0.18245174
000370 bd 33 86 3d c7 38 a4 bd c2 fe 60 bd e4 27 a4 bd
       0.06552837 -0.08018642 -0.054930456 -0.08015421
000380 61 40 2f be 41 f8 60 3e 2f 8f a0 be 5a fa 2e bc
       -0.17114402 0.21969701 -0.3135924 -0.010679806
000390 11 93 a1 bd 60 64 ce bd fd a3 a0 3e 21 08 b1 bd
       -0.07889379 -0.10077739 0.31375113 -0.086441286
0003a0 89 92 91 bd d9 99 6c 3e 8d 8e 35 3c 06 0d 82 3e
       -0.071080275 0.23105563 0.01108135 0.2540056
0003b0 f3 04 b0 bd 2c d5 cc 3d 21 9f 94 be 55 ae 9d bd
       -0.08594694 0.10001597 -0.29027656 -0.07699267
0003c0 9d 22 5b be e2 44 22 be 3c 09 6f 3e 2e 74 3f bd
       -0.21399923 -0.15846589 0.23343366 -0.046741657
0003d0 41 bc 1d be 9b e8 91 bd b4 f0 9a 3d e7 fa 62 be
       -0.15403844 -0.07124444 0.07565442 -0.22166024
0003e0 73 3e 35 3e 98 20 38 3d 21 28 01 3d e8 be 87 3d
       0.17699604 0.04495296 0.03153241 0.06628209
0003f0 3c 2b bc bd 7f 0b 0c 3e 65 82 8e be 66 ee d8 be
       -0.09187934 0.1367626 -0.27833858 -0.42369384

network_body._body_endoder.seq_layers.0.bias f4 [128]
000000 fd b1 47 bc 4b 1a c8 bc d0 45 04 3c 49 ec 80 3c
       -0.012188432 -0.0244266 0.008073285 0.01573767
000010 ff b6 0e bc d6 d7 56 bc 40 a5 1c bc 26 5d 3f bc
       -0.008710622 -0.013112983 -0.009560883 -0.011679923
000020 52 a2 93 bc 53 cc cb 3c 08 e2 e2 bc 50 2d 83 3d
       -0.018021736 0.024877703 -0.02769567 0.06405127
000030 66 2e 31 bd 5a f3 17 3b b5 86 2f bc 1c 1f 2e 3c
       -0.04325714 0.002318582 -0.010713269 0.010627534
000040 4f f9 ef bb 60 ec 81 bc 63 89 56 3c 2a eb e3 3c
       -0.007323421 -0.015859783 0.013094279 0.027822096
000050 0e 67 ef 3b 36 04 ef 3c 79 16 eb 3c 83 ae c1 3b
       0.0073059862 0.029176813 0.02869724 0.005910696
000060 97 b9 76 3c 0d e2 d5 bb b1 a7 87 bb 28 8d 9d 3b
       0.0150588965 -0.0065271915 -0.0041398634 0.004808087
000070 96 fc 21 bc 51 90 50 3c 92 81 75 ba 04 77 8b 3c
       -0.009886881 0.01272972 -0.0009365316 0.017024525
000080 e7 f9 36 ab 1b f2 c8 bb ee 60 8d bc 3f ba 18 3c
       -6.50062e-13 -0.006132377 -0.017258134 0.009321748
000090 2f de 53 3d de 38 ba bc ee de d2 bc 51 4a 0e 3d
       0.051725563 -0.022732195 -0.025741067 0.034738842
0000a0 4e 68 76 bb d9 e0 c7 bb 8a 94 6d 3d 61 e4 b8 3c
       -0.0037598792 -0.006099802 0.058002986 0.022569837
0000b0 57 57 24 bd ac e5 fc bc 63 fd 18 bc a3 ad 13 3d
       -0.040122356 -0.030871235 -0.009337756 0.036054265
0000c0 39 6e 98 bb 06 82 f9 bb 2b 3a 03 3c 76 9d 38 bb
       -0.0046518114 -0.007614377 0.008009474 -0.0028170026
0000d0 f3 b1 e5 3b f9 2d 40 3d 78 04 fc ba 00 a9 51 bb
       0.0070097386 0.046918843 -0.0019227406 -0.00319916
0000e0 cc 32 65 39 2b a9 07 3c 60 fa 58 3c 47 33 5e 3c
       0.00021858065 0.008280079 0.013243288 0.01356203
0000f0 cf 05 61 bc 85 39 b8 bb 90 02 cb ba 99 ef 79 bc
       -0.013734295 -0.0056220912 -0.0015488435 -0.015254878
000100 b7 7e a8 bc d3 3d 85 3b b3 8b c8 3c 14 28 b1 3c
       -0.020568235 0.004066208 0.024480676 0.021625556
000110 42 5a 32 3d a4 8d 42 3a 3a 4a 86 bc 8d c9 bd bb
       0.043543108 0.0007421619 -0.016392816 -0.005791849
000120 f5 e4 7d 3b 28 96 9e bc 3b 8f 0e 3d bf 4d b8 bc
       0.0038741205 -0.01935871 0.034804564 -0.02249801
000130 10 c1 4d bc e0 bc 3e bc 19 d3 5c ba 00 1c c7 3c
       -0.012558237 -0.011641711 -0.000842379 0.024305344
000140 7f 46 c9 bc ba 50 b7 39 43 d4 3e 3d 53 ce 84 3a
       -0.024569748 0.00034964626 0.046589147 0.001013229
000150 48 b4 a4 b9 a2 be 83 b9 d6 dd 77 3d 9f 49 db 3c
       -0.00031414838 -0.000251283 0.060514294 0.026768504
000160 d2 63 4a bc 5b 0b 71 bb b0 a5 ab 3c fb a9 d0 bc
       -0.012352901 -0.003678045 0.02095303 -0.025471678
000170 93 b7 a9 bc 41 a5 95 bc ee ac ac bc e4 7b 90 bc
       -0.020717418 -0.018267276 -0.021078553 -0.0176372
000180 c9 54 06 3d 33 68 d3 3c ef 2f 0f 3c a2 1d 08 3b
       0.0327957 0.025806522 0.008739456 0.0020769616
000190 c1 b3 0b bc d1 72 ec bb a7 5e 39 bb 0e 8d e1 bb
       -0.008526743 -0.0072158356 -0.0028285177 -0.00688327
0001a0 4a bb 9f bc 38 8a e5 39 f4 d7 11 bb 91 94 88 3d
       -0.019498486 0.00043781265 -0.0022253962 0.06668962
0001b0 5e 44 2e 3d ed b2 4c 3c 4f 63 59 3c 00 30 99 bc
       0.04254567 0.012493831 0.013268306 -0.018699646
0001c0 ab 33 9a 3a 88 31 83 3b 7f ef 5c 3b 24 35 57 bc
       0.0011764666 0.0040037073 0.0033712087 -0.013135228
0001d0 e8 aa ac 35 52 cb a3 bc cb 0e 63 bc 87 7e a0 3c
       1.2864739e-06 -0.019994412 -0.013858507 0.019591583
0001e0 b6 04 90 bb a8 00 de bb 8a c8 0a bd 79 10 10 3d
       -0.004395093 -0.0067749806 -0.033882655 0.03517196
0001f0 a0 c8 0e bc a1 94 09 ba 9f ba ed 3c 3e 32 65 3d
       -0.008714825 -0.00052482827 0.029019652 0.055956118

network_body._body_endoder.seq_layers.2.weight f4 [128, 128]
000000 c2 ec 82 bd 0d 93 74 3d 51 78 ca 3d db 2c 26 3c
       -0.06392814 0.05971055 0.0988623 0.01014253
000010 e3 22 4d 3d 41 9c 5e bd 56 4e 27 bb 84 37 05 be
       0.0500821 -0.054348234 -0.002552887 -0.13009459
000020 a6 78 21 3d 9f 57 4e be 4b d5 0b be c8 16 c8 3c
       0.0394217 -0.20150612 -0.13655584 0.024424925
000030 2d 90 99 bd 1e 69 1b 3e e2 e7 cd bd 52 8a 2e 3d
       -0.074982025 0.15176818 -0.10053994 0.04261238
000040 c0 30 b7 bd 37 30 bd bc a5 84 fa bd 96 43 54 3b
       -0.08944845 -0.02309428 -0.12232331 0.0032388917
000050 6f 3f 8d bd 5d b8 e6 bd d6 a3 92 bd f2 b6 38 3c
       -0.068968646 -0.11265633 -0.071601555 0.011274086
000060 a7 e8 e2 bd 3e 1a e2 3d e2 8c 45 3c 05 10 74 3c
       -0.11079531 0.110401616 0.012057515 0.0148963975
000070 fb fb 84 bd 08 8e 0f be 60 f7 8a 3c 5d 62 89 bd
       -0.06493374 -0.14019024 0.01696366 -0.067082144
000080 94 73 30 3c 11 17 5b 3e 58 08 6a 3d f6 e2 a6 bd
       0.0107697435 0.21395518 0.057136863 -0.08148758
000090 78 8f 13 3d 85 d5 02 3d 28 68 fa bd 78 ae 98 bc
       0.036025494 0.03194191 -0.122268975 -0.01863788
0000a0 51 84 10 3e 0a 46 a7 bd 66 c1 68 3c 64 01 bd bd
       0.14112975 -0.08167656 0.014206266 -0.09228781
0000b0 c0 0c c3 ba 93 cb 4c bd 1e f7 6a 3e f7 8d 93 bd
       -0.0014881119 -0.04999883 0.2294583 -0.07204812
0000c0 ba 6e 55 3d 05 53 18 3d 6e 10 70 3c 14 55 bc bd
       0.05210755 0.03718855 0.014652355 -0.09195915
0000d0 6a 3e fc 3c 0f 00 a6 3c 52 8d 90 bd 7c 7c 59 3d
       0.03079148 0.0202637 -0.07058205 0.053097233
0000e0 46 7c 33 3c 6d 96 d3 3d 66 fa 23 bb 5f ca 2b bd
       0.010954922 0.10331426 -0.0025021075 -0.041941043
0000f0 fb 21 8c bd 05 5f 0d bc b2 e4 8f bc 91 5b 1a bd
       -0.06842419 -0.008628611 -0.017565105 -0.03768498
000100 02 ed 30 bd 0a 2b 49 3d 2c e6 b2 bd f5 64 c2 3d
       -0.04319478 0.04911331 -0.08735308 0.09491912
000110 0a cf a3 bc 15 1b 93 3d ef 5d 77 3d 24 c5 8f bd
       -0.019996185 0.071829 0.060392316 -0.070200235
000120 33 f6 0d bd e6 f2 aa 3d 5e 67 8b bd b9 00 1a 3d
       -0.034658622 0.083471105 -0.06806825 0.037598345
000130 ae 49 0d 3e 65 b3 97 3d 06 71 a3 3d 30 92 bc bb
       0.13797638 0.07407264 0.07980542 -0.0057547316
000140 f8 fc 30 bc 41 d5 87 3e 33 35 17 3a c6 c1 34 3c
       -0.0108025 0.26529887 0.000576812 0.011032527
000150 f1 0f 32 3b d3 56 ac 3d b7 83 cd bd 7f 95 88 3d
       0.0027170146 0.08414998 -0.10034888 0.06669139
000160 9d 3c 8b 3c 65 e3 0c bd ad 6b 5d 3c 26 c5 83 bd
       0.016996676 -0.034396548 0.013514441 -0.064340875
000170 39 41 10 3d 52 49 cf 3b 8e 86 07 bd 0b 93 4f be
       0.03521845 0.006325879 -0.033087306 -0.20270936
000180 93 0a 02 3e 52 e6 31 be 8c 37 2e 3d 8e ba 45 bc
       0.12699346 -0.17373016 0.042533442 -0.012068404
000190 43 8d 9f bd 1d 28 fe 3d 87 ee a5 bc ca d6 88 bd
       -0.077906154 0.12409995 -0.02025534 -0.06681593
0001a0 3e 84 1e bd 52 b9 90 3b 56 2e aa 3d 55 d9 3c 3d
       -0.038700335 0.004416623 0.08309619 0.0461057
0001b0 9a 9d 03 bd 9a 6b 03 be f6 e4 c0 bd 7b 3e e4 3c
       -0.032132722 -0.12834015 -0.09418671 0.027861824
0001c0 f4 12 5a bd 1f 09 41 be 86 b1 a9 bd cc 44 c4 bc
       -0.05324073 -0.18851136 -0.08285813 -0.023958586
0001d0 da 8f 57 be 19 94 23 3e 88 5c b8 3d d4 b0 38 3d
       -0.21050969 0.15974464 0.09002024 0.04509051
0001e0 9c 37 87 3d 5c 26 d1 bd 1f 71 d7 3b 3e 64 af 3d
       0.066024035 -0.102123946 0.0065747644 0.085640416
0001f0 dc 70 66 3c 45 39 46 be 74 7d f2 3c 15 7f a1 bd
       0.014064994 -0.19357784 0.029600836 -0.07885567
000200 71 29 91 bd 0c 20 30 bd 3e f2 8a 3d 05 f5 d1 bd
       -0.070879824 -0.042999312 0.06784485 -0.10251812
000210 6f 01 00 3d fd 8a 20 be 86 df 0d 3e 5b ea d9 bc
       0.031251367 -0.1567802 0.13854799 -0.026601007
000220 8b d5 0e be ce b5 8d bd ba 78 ea 3b 2a b9 e3 3b
       -0.13948648 -0.06919442 0.007155505 0.0069495635
000230 cc 86 3c b9 27 8d 81 3d 9e 45 08 3e ef 66 47 3e
       -0.00017979293 0.06325751 0.13307807 0.1947286
000240 97 60 ca bd a6 74 71 bd 99 4a 3d bd 60 2e 18 bd
       -0.09881704 -0.058949135 -0.04621372 -0.0371536
000250 df 04 a2 bd 40 b3 ed 3d f7 b8 d4 bd dc bd 06 3e
       -0.07911085 0.11606455 -0.10386842 0.13158363
000260 e3 0f c4 3d e5 be 37 3e 16 8c 75 3c 5f 8a 2a 3d
       0.09573343 0.17943914 0.014987012 0.041635867
000270 74 c3 1c bd 21 a9 87 bd 53 db ba bd 21 d8 83 bd
       -0.038272336 -0.06624056 -0.09123864 -0.06437708
000280 41 a2 05 3e 8c a4 44 3d 2b a4 a2 3c 33 15 11 be
       0.13050176 0.048008487 0.019853672 -0.14168243
000290 e6 20 ac be 8d 41 ad bb 7a 99 82 3d b7 b4 8c 3d
       -0.3361885 -0.0052873553 0.063769296 0.06870406
0002a0 ce 0e f7 3d e7 01 fd bd c2 72 a9 3d 92 e1 13 3c
       0.12063371 -0.123538785 0.082738414 0.009025948
0002b0 43 1b f4 3c 16 0b ad 3d 89 3d 69 bd b8 4a 0f 3d
       0.029798156 0.0844938 -0.05694345 0.034983367
0002c0 3d aa b9 bd da f8 9c bd 1e 0d 93 bd 94 91 80 bd
       -0.090656735 -0.07664652 -0.07180236 -0.06277767
0002d0 a0 70 d8 bd d9 48 0a 3e aa e9 fe bd 64 c9 ba bb
       -0.105683565 0.13504352 -0.12446912 -0.005700277
0002e0 64 e9 69 bd 81 de fd bd fa ee 66 3d 7c 37 8e bc
       -0.057107344 -0.12395955 0.05638025 -0.017360441
0002f0 42 b7 4e be c4 37 64 3d 24 fa 2e be ab a2 0f bd
       -0.20187095 0.055717245 -0.17087609 -0.03506724
000300 2a bf a5 3d c0 84 a2 bc 3d 1e 86 bd b7 62 a3 bd
       0.08093102 -0.01983869 -0.06548736 -0.07977813
000310 72 46 26 3e da c2 6b 3d 56 37 bc ba 6c 98 1c bd
       0.1623781 0.05755887 -0.0014359753 -0.0382313
000320 9f 34 60 bc ae 74 47 be 4a 52 13 bd 38 d1 e7 bc
       -0.013684421 -0.19478104 -0.03596715 -0.028298005
000330 0f 49 91 3d b6 f0 46 ba b1 84 cb 3c 21 a2 73 bd
       0.07094013 -0.00075889693 0.024843546 -0.05948079
000340 62 56 f7 bd 5a 9e de 3d a9 48 6c bb 58 cf db bd
       -0.12077023 0.10870047 -0.003605405 -0.10732907
000350 91 ee 23 3d 4b 44 47 be dc a1 3d 3e 47 88 b8 3e
       0.040022437 -0.19459645 0.18518776 0.3604147
000360 b5 3c f3 bd 3e 0e 4e bd a6 92 99 bc 5a 68 7b bd
       -0.11876813 -0.05030655 -0.018746685 -0.061378814
000370 ba f5 40 bd d0 fb 40 bd 9d 69 c7 3b ca e6 ed 3d
       -0.047109343 -0.047115147 0.006085588 0.11616285
000380 d4 20 1a 3e b0 99 97 3d 4d f6 04 3e a8 cc 8f 3d
       0.15051585 0.074023604 0.12984581 0.07021457
000390 e1 2d 29 bd 08 05 b4 3d b5 4e cf 3c a2 2a 0d be
       -0.04130352 0.08790022 0.025306085 -0.13785794
0003a0 5c bd 89 3b af fd ce 3c 61 ae 42 3e b9 db 96 3d
       0.0042034816 0.02526745 0.19011833 0.073661275
0003b0 58 97 2c be dc 87 73 bd 66 8b b8 bc 55 f9 b5 bd
       -0.16854608 -0.059455737 -0.022527408 -0.08885447
0003c0 33 91 2a be 7d 91 9b bc 7b c5 bc bd d4 97 89 3d
       -0.16656952 -0.018990273 -0.09217354 0.06718412
0003d0 8b c5 21 bd ba 9c 60 3d 5b 17 7a bd 0e b8 d0 3c
       -0.039495032 0.054836966 -0.06105743 0.02547839
0003e0 c3 f1 01 bd d9 5e b9 bd ff 0a f4 3d 16 5b eb 3b
       -0.031724703 -0.09051294 0.1191616 0.007182489
0003f0 ef 03 d2 3a 02 9e 16 3e 56 57 ae bd e4 cb d5 bd
       0.0016022901 0.14708713 -0.08512752 -0.1043928

network_body._body_endoder.seq_layers.2.bias f4 [128]
000000 e9 a3 77 3b 86 88 1f bc 13 22 09 bb d3 8f e3 ba
       0.0037786907 -0.00973714 -0.002092485 -0.0017361589
000010 db c4 6e bc ab 02 e6 3b d7 84 6b 3b ce 66 25 3c
       -0.014573301 0.007019361 0.0035937333 0.010095311
000020 92 f7 35 bb bd 43 3e ba 0a 1f 6a bc 1e 35 03 bc
       -0.0027765972 -0.00072580186 -0.014289627 -0.00800827
000030 65 dd 17 3c 2f 38 ff bb a8 97 fd 3b e9 ed 69 3c
       0.009269093 -0.00778868 0.007739026 0.014277914
000040 1e 40 d4 bb a8 9b 8c bb 7d 11 87 3b be 7d 67 bc
       -0.00647737 -0.0042910166 0.004121958 -0.0141291
000050 9a 20 5b 3b ed 3a a6 bb 9c 33 ff bb e2 37 be bb
       0.003343618 -0.0050729425 -0.0077881347 -0.0058050016
000060 7c 74 be ba f8 28 3a bc 8d 50 18 3a 99 e2 d9 bc
       -0.0014530565 -0.011362307 0.0005810343 -0.026597308
000070 71 b4 a5 3b c3 86 55 bc cd b0 28 bc 9f 5f c2 b9
       0.0050569107 -0.013032618 -0.010296059 -0.00037073807
000080 df 0f cc 3c 66 83 0c 3c 28 5e b3 bb 8d 49 08 3c
       0.024909912 0.00857625 -0.005473871 0.008318317
000090 da 46 60 3c 76 52 c2 bc 07 a7 f2 bc 8e 7b 6f 3c
       0.013688767 -0.023720961 -0.02962066 0.01461686
0000a0 fc db 32 bc 32 f6 20 bc 8d 9f 15 ba 90 33 47 3c
       -0.010916706 -0.009824323 -0.0005707674 0.01215829
0000b0 c7 07 61 bc 90 5c 67 bc af ef d2 ba 98 f2 25 3c
       -0.013734764 -0.01412119 -0.001609316 0.01012864
0000c0 03 5e 36 3c 53 d5 16 3b a6 48 70 3c a5 74 b0 39
       0.011130813 0.0023015335 0.014665758 0.00033656243
0000d0 47 75 5d 3a 8f b4 d0 3b 95 53 f2 bb ac 39 72 38
       0.00084479566 0.0063691805 -0.0073952177 5.7751007e-05
0000e0 aa ae 7d bc 50 e2 36 3c 20 2d 62 bb 53 20 05 3c
       -0.015483538 0.011162356 -0.003451176 0.0081253825
0000f0 e3 27 b2 bb 9f 50 18 bc 6f 22 fc ba 2e 04 14 3c
       -0.005436884 -0.009296565 -0.0019236336 0.0090342
000100 49 8d c9 bb cc 37 04 bc 50 0b 10 bb dc 3c fd 3b
       -0.0061508757 -0.008069944 -0.00219794 0.0077282023
000110 0b 2f 2f bc cd aa dd bb c6 76 0d 3b 88 0d 30 ba
       -0.010692368 -0.006764746 0.0021585687 -0.00067158835
000120 24 b9 86 3c 65 fa 31 ba 04 67 06 bc c7 1f 9f 3c
       0.016445704 -0.0006789326 -0.008203272 0.019424332
000130 be ca a5 3b 64 30 3c 3b 7f ee 32 bc 51 ad 06 3b
       0.005059569 0.0028715366 -0.01092112 0.0020550082
000140 13 31 4b bc c4 d8 5b bb 76 0a b1 3a c7 4c 65 3c
       -0.012401837 -0.003354595 0.0013507146 0.013995356
000150 76 8c 1f 3c 73 39 a5 bb 88 4d 45 3b a3 5d 60 3c
       0.009738078 -0.005042249 0.0030106027 0.0136942
000160 33 4d 32 bc aa d0 c2 3b 15 9a af bc 1f 1f 78 bb
       -0.010882664 0.005945285 -0.021435777 -0.0037860346
000170 36 48 18 3c 6b c4 4b bc 0f 4d 2a 3c 4e 42 ca b9
       0.00929456 -0.012436966 0.010394349 -0.00038577843
000180 59 3c 19 bc 81 5d d6 bb 58 68 cb bb 55 54 45 b9
       -0.009352767 -0.0065419083 -0.006207507 -0.000188188
000190 b8 ab 34 3a 5d 93 98 bb b3 47 8b 38 31 44 ca bb
       0.0006892043 -0.004656239 6.6413915e-05 -0.00617268
0001a0 76 ed 43 bc a9 78 19 3c 46 f5 d0 3a 54 e8 c5 ba
       -0.011958471 0.0093671465 0.0015942238 -0.0015099146
0001b0 6f f1 80 bc 1d 5a c5 bb e2 c9 50 3b 74 36 95 3b
       -0.015740125 -0.006022705 0.0031858613 0.0045536105
0001c0 13 d3 34 bc d9 c0 3a 3c 3f 0c 19 3c 00 1f 65 bc
       -0.011036652 0.0113985175 0.009341299 -0.013984442
0001d0 cc fd 3c bc 88 03 d5 bb 5e bd 0e 3b 76 ef 2b bc
       -0.011535119 -0.006500665 0.0021780352 -0.010494104
0001e0 37 41 aa bb 02 0a bb 3a 41 3e 37 3c b4 bb 71 3b
       -0.0051957625 0.001426995 0.011184276 0.0036885561
0001f0 21 8b d3 3b a0 ce fc bb 87 3b d2 ba 0e 09 99 bb
       0.0064557944 -0.0077150613 -0.0016039469 -0.004670269

action_model._continuous_distribution.mu.weight f4 [1, 128]
000000 34 6c 1a 3d 62 36 f5 3c 31 37 9d 3c 0d 42 26 bd
       0.037700847 0.029933158 0.019191356 -0.040590335
000010 a4 44 c2 bd 84 38 20 bd 0c 46 5f 3d ea 4f c1 bc
       -0.094857484 -0.039116398 0.05451016 -0.023597676
000020 00 41 69 bd 4d 72 de 3c 13 50 71 bc 78 31 ee bc
       -0.056946754 0.027154112 -0.014728564 -0.029076323
000030 d9 2f 4e bc 64 65 18 bd 43 ac f3 bc 00 65 fb bc
       -0.01258465 -0.03720607 -0.029745227 -0.030687809
000040 4f 9e 88 bd cb 23 21 3d eb d6 72 3d 76 dc 21 3d
       -0.0667082 0.039340775 0.059286993 0.03951689
000050 e9 93 5f bc 58 04 7d 3d ea 98 35 3c 3b 38 89 bc
       -0.013646104 0.06177172 0.011083821 -0.016750446
000060 e1 8a a3 3c 0b 70 9d bc 84 5d 04 3d 13 0f 7c bd
       0.019963684 -0.019218465 0.032315746 -0.061537813
000070 27 05 ba bb 3f 35 cc bc 4b b3 af bc f7 07 2d bb
       -0.0056768837 -0.024927733 -0.021447798 -0.0026402452
000080 ab a6 0e 3d 97 ec f6 3c 39 a7 f8 bc c9 bf cb bd
       0.034826916 0.030142112 -0.030353175 -0.099486895
000090 ee ec 4c bd 18 ae 97 3c eb 78 b7 bd d1 58 28 3d
       -0.05003064 0.018515632 -0.0895861 0.041100327
0000a0 9e 5e 59 3c 03 d7 4f bc 5f c8 c8 bb 45 b7 e2 3c
       0.013267187 -0.01268554 -0.0061274017 0.02767528
0000b0 44 65 2a bc 09 9d 8b bd a4 86 2b bc 69 de aa bd
       -0.01040012 -0.068170615 -0.010469113 -0.083432026
0000c0 45 6c 0f bd 5b 39 89 bd eb e8 8c 3d e8 6a e5 3c
       -0.035015363 -0.06700393 0.06880363 0.028005078
0000d0 b3 c9 8f 3b 47 1a 45 3c ee f6 19 3c ca 96 8f bc
       0.004388058 0.012030191 0.0093972515 -0.017527957
0000e0 11 c3 bb 3c c9 50 67 bd 7e c7 97 3d 73 6d 37 bc
       0.022920163 -0.056473527 0.07411097 -0.011195528
0000f0 f9 4b ba bc 3f e6 25 3d 98 95 a4 bd 74 dc c5 3b
       -0.022741305 0.040502783 -0.08036345 0.006038243
000100 6f c0 f8 3c 0f 53 00 3d d9 fb 49 bd 2e 41 2e bd
       0.030365197 0.03132921 -0.049312446 -0.04254263
000110 5d b7 ca bb 7c 71 c8 bc fe cb 03 bc 8e 92 44 3d
       -0.0061864094 -0.024468176 -0.008044241 0.047991328
000120 d9 cb 6d bd a6 fe 06 bd 5a c1 0f bb 86 8a a8 3c
       -0.058055732 -0.032957695 -0.0021935315 0.020573866
000130 d3 88 6a 3d d7 d8 61 3d 64 6b a3 bc a3 13 3a bd
       0.057259392 0.055138435 -0.019948669 -0.045428883
000140 07 8a 0e 3d 6e 11 9f 3a 6b 79 80 3d 73 cf b4 3b
       0.034799602 0.0012135932 0.06273159 0.005517894
000150 5e 5a 0b bd e6 2e 85 3d 18 8c 35 bd ad 0d 65 bc
       -0.034021728 0.06503086 -0.044323057 -0.013980311
000160 82 8c 71 bd a8 7d 53 3d e1 d8 f8 3c 02 e6 65 3c
       -0.05897189 0.051633507 0.030376853 0.014031889
000170 f2 ac 6e 3d 67 45 75 3d b7 57 42 3d b3 ac e6 3c
       0.058270402 0.05988064 0.047446933 0.028158521
000180 af 2c e5 bb 2b be e7 3c ae 6e ef bc 54 1c f9 3c
       -0.006993852 0.028288921 -0.02922758 0.030409016
000190 95 1b 65 3c 60 cc 40 bd 2a e2 06 bb e3 3a 36 bd
       0.013983627 -0.047069907 -0.0020581582 -0.044489753
0001a0 d4 60 da 3c 44 e2 58 bd 12 28 ba bc 2b db 03 bd
       0.0266575 -0.05295016 -0.022724185 -0.032191437
0001b0 70 3d 14 bc f5 ff 84 bd ed 56 4a bd 72 d4 80 bd
       -0.009047851 -0.064941324 -0.049399305 -0.06290521
0001c0 22 6b 8e 3d 0d 59 50 bd 6d 2e b0 bc b5 ed 1f 3d
       0.06954028 -0.050866175 -0.021506513 0.039045054
0001d0 5e a2 d6 3c 8d 81 5c bb 49 83 e6 3c 28 ac 22 bd
       0.02620047 -0.0033646554 0.028138774 -0.039714962
0001e0 35 c0 ef 3b 9e 78 3c 3d a1 e2 94 3c 39 ca ae 3c
       0.007316614 0.046013467 0.018174471 0.021336662
0001f0 13 ce c2 bc e9 cf 2c bd 88 12 85 bd 7e 6d de bc
       -0.023779904 -0.042190466 -0.06497675 -0.02715182

action_model._discrete_distribution.branches.0.weight f4 [3, 128]
000000 20 65 d2 bb 8c 06 93 bd 14 38 c2 bd 27 29 c9 bc
       -0.0064207464 -0.07178983 -0.09483352 -0.024555756
000010 d0 99 c6 3c f8 72 f1 3c 52 e4 2a bb e2 d6 49 3d
       0.024243265 0.029473767 -0.002607603 0.049277194
000020 f5 4c 23 bd ce c9 f8 3b 2b 58 52 b9 81 1d 32 bd
       -0.039868314 0.0075924164 -0.00020060006 -0.04348517
000030 b9 a8 b6 bd 7d 81 4b 3c c5 4b 63 3d fb b1 d4 3c
       -0.089189 0.012421009 0.05549218 0.025963774
000040 f6 45 18 bd d0 44 29 bd 84 3d c5 3d 55 c6 0c 3d
       -0.037176095 -0.04132539 0.09630874 0.03436883
000050 9d 26 40 bd 18 73 be 3b 81 df 01 bb 7f 6b d1 3c
       -0.046911824 0.00581206 -0.0019817057 0.025563953
000060 de e3 8b bd cc 62 25 bc 52 c2 af bc d6 fe 05 3b
       -0.068305716 -0.010094356 -0.021454964 0.0020446084
000070 65 0b 9d 3c e6 e1 17 3d 51 77 53 bb f4 e9 84 bc
       0.019170472 0.037080668 -0.0032267163 -0.016224839
000080 cd 7f 0a 3e 44 37 13 3d b0 3a f0 3c ce 55 72 bb
       0.13525315 0.035941377 0.02932486 -0.0036977413
000090 84 e7 6f 3d 3b 3b 0d bd 7c a2 07 3c f0 93 8d bd
       0.0585704 -0.034480315 0.008278485 -0.069129825
0000a0 aa 7d 94 bd 79 01 e4 3a a1 83 41 3d 6d 35 c4 3c
       -0.07250531 0.0017395458 0.04724467 0.023951257
0000b0 e1 62 57 bd 08 54 4f 3b 9a 57 94 bd 11 61 a9 bd
       -0.052584533 0.003163578 -0.07243271 -0.08270467
0000c0 7b 33 72 bd da bb b7 bc 1c 19 aa ba f7 e8 4c bd
       -0.059131127 -0.022428442 -0.0012977454 -0.05002686
0000d0 af b6 cc bc 6a 38 5a 3d 48 c8 19 bd 78 20 17 bd
       -0.024989454 0.053276457 -0.03754452 -0.0368962
0000e0 d0 3e df 39 dc cd 05 bd 79 d8 06 bd 15 80 cf 3b
       0.00042580673 -0.032667026 -0.03292129 0.0063324072
0000f0 91 b2 e0 bc 62 6c 8f 3c 1d d9 60 bd 3d 51 41 3d
       -0.027428897 0.017507736 -0.054894555 0.047196615
000100 7a fa a1 3c fc 34 08 bd d8 3c 34 3c a4 c6 b9 bc
       0.019772757 -0.033253655 0.011000834 -0.022677727
000110 77 8d 67 3d ff 7d a7 bd 36 cc 92 3c d6 62 7f 3c
       0.056531396 -0.08178329 0.017919641 0.015587529
000120 b8 2d 39 3d af 38 08 3d 4a 3b de 3c 66 f4 e5 3c
       0.045209616 0.033257183 0.02712788 0.02807064
000130 79 20 02 bd 2a 49 6a 3a 46 f0 b7 bc b7 6d b5 3d
       -0.03176925 0.0008937294 -0.022453438 0.08858817
000140 48 95 84 3c 3e 20 94 3c 40 33 43 bd c0 cf 9e 3c
       0.016184464 0.01808178 -0.047656298 0.019386172
000150 ff 3a ab bd e1 53 54 bd a1 f3 78 bc 5e 23 88 3d
       -0.08360862 -0.051837806 -0.015194804 0.06647371
000160 49 e8 11 bd 02 00 bf bd ed d6 4c 3c cf fb ab ba
       -0.035621915 -0.09326173 0.012502414 -0.001312131
000170 bc 15 a1 3a 81 69 3e 3d 89 ca 5e 3c 9f 8c 49 3c
       0.0012289803 0.046487335 0.013598093 0.012301593
000180 6d 22 ff bc 94 91 06 3d 94 21 01 bc 3f ff e4 bc
       -0.031144345 0.032853678 -0.007881541 -0.027953742
000190 a6 af 85 bd c2 c5 3b bd ce 36 88 3d 3b e2 29 bd
       -0.06527643 -0.045842893 0.06651078 -0.041475516
0001a0 52 57 b9 3d 1f 99 01 3e e0 24 b1 3d 67 29 69 3d
       0.09049858 0.12656067 0.086496115 0.05692425
0001b0 76 b2 14 bc 2a 14 5c 3c 31 f3 b8 3d 8c c1 2b bc
       -0.0090757515 0.013432542 0.0903076 -0.010483157
0001c0 2f c6 a0 3c ff 5d b4 ba 93 9c 9b 3d e7 2f 50 bd
       0.019625751 -0.0013760923 0.075982235 -0.050826933
0001d0 b7 d1 96 3c 78 c7 4c 3d 95 ee 4b 3c 69 66 a7 bc
       0.018410547 0.049994916 0.012447019 -0.020434575
0001e0 bc f7 99 3d f8 2b 9c bb db 4e 57 3d 9a 62 cb 3c
       0.07517955 -0.0047659837 0.052565437 0.02482729
0001f0 a8 6b 13 3d b8 56 83 bb 92 e7 79 3d ea 8a 29 bd
       0.03599134 -0.0040081404 0.06101186 -0.041392244
000200 af 0a 8c 3b 2c f8 cf bc 31 ce 30 3d d7 e7 24 be
       0.0042737345 -0.025386892 0.04316539 -0.16104065
000210 27 92 16 bc 9a 60 b1 b9 68 3d 96 bc cd 9c 3b bd
       -0.009190119 -0.00033832045 -0.018339828 -0.045803834
000220 f2 b0 56 3d 3a 85 83 bc 60 1a 91 3a 3a 28 75 3d
       0.052414842 -0.016054738 0.0011070482 0.059852816
000230 0b 59 34 bc 60 33 66 3a 7a 4d f4 3b d3 a0 a3 3b
       -0.011007558 0.0008781459 0.007455525 0.004993537
000240 f8 ca ae 3d a3 e7 5d bd cb 8f 87 3c cb dd 37 3d
       0.08534807 -0.054175984 0.016548058 0.044889253
000250 f5 28 19 3e c0 c3 88 3c c7 bf fa 3c a9 4d c0 3d
       0.1495703 0.016694903 0.030609025 0.093898125
000260 64 67 86 bd f4 4f 7e 3c f0 5a 8a 3c 85 08 4a 3d
       -0.06562689 0.015521992 0.016889066 0.04932453
000270 2f 45 88 bd 0c 05 04 bd 47 e2 89 bc 68 c6 03 be
       -0.06653821 -0.032231376 -0.01683153 -0.12868655
000280 d2 12 ec bd 05 18 8d bd bc 1a dc bd fd fe 47 bc
       -0.11527027 -0.06889347 -0.10747287 -0.01220679
000290 19 aa 4d bd f2 57 b8 bd a7 69 39 bc b1 41 bc bd
       -0.050211046 -0.09001149 -0.011316693 -0.09192217
0002a0 a9 eb 0c be 5a 66 df bc f6 f0 c6 bc e3 4a 22 be
       -0.13761772 -0.027270485 -0.024284821 -0.1584888
0002b0 be 9e 27 be d6 da c7 3b f7 88 7b bd a2 ea d7 3c
       -0.16369149 0.0060990853 -0.061409917 0.026356999
0002c0 9b 5c 2a 3d 3b db 92 3c c9 4d 40 bd 67 7a ad 3c
       0.04159222 0.017926803 -0.04694918 0.02117653
0002d0 85 dd 8a bc f5 45 2d bd 54 2f e9 3d c4 6a a0 bc
       -0.016951332 -0.042303044 0.1138598 -0.01958216
0002e0 2f b4 94 ba e8 78 47 3c c8 8d 78 3d 1c fa 48 be
       -0.0011345203 0.012174822 0.060682088 -0.19626659
0002f0 ac a0 16 3e 99 7e a4 bc 2b 5d 9a 3d 56 01 d3 bd
       0.14709729 -0.020079898 0.07537302 -0.10302989
000300 8d ea b0 bc 59 0f e5 3c 89 7a 78 bd 9a bf bc bc
       -0.021596218 0.02796142 -0.060663734 -0.023040581
000310 2d d0 1f bb c9 36 0b 3e 4b bf 2c be 38 78 94 bc
       -0.0024385557 0.13595118 -0.16869847 -0.018123731
000320 99 fa 13 3c 86 24 28 bd 7f 4f 45 3e 31 2c 14 be
       0.009031915 -0.041050456 0.19268607 -0.14469983
000330 1b 41 30 bc 4e d7 18 3e be ef c9 3c 93 6e 65 3e
       -0.01075771 0.14925882 0.02465045 0.22405462
000340 87 35 58 bd 29 dd 0f bd 76 cc 5e bc 88 28 50 bc
       -0.052785423 -0.035123024 -0.013598552 -0.012704976
000350 5e b0 14 3e fd 1f 43 3e 4a e3 08 be d4 a3 04 3e
       0.14520404 0.19055171 -0.13367954 0.1295312
000360 3a be 3b bd 48 a2 12 be 41 5a af bc e0 25 71 3d
       -0.04583571 -0.14319718 -0.021405341 0.05887401
000370 f8 26 2e bd f8 7c 08 3e 52 9d ef 3b 76 88 33 bd
       -0.042517632 0.13328922 0.007312455 -0.04383131
000380 a7 3a c3 3d 00 01 15 bc a9 ea 65 ba ec e9 93 3c
       0.095326714 -0.009094477 -0.0008770624 0.018055879
000390 7b d3 02 3d a8 10 2c bd f6 40 20 bc 02 57 e0 bc
       0.031939965 -0.042008072 -0.009781113 -0.027385239
0003a0 ef 0e 31 be 4b 5a 55 be 10 cc 9e bd 81 78 2f 3d
       -0.17290853 -0.20835225 -0.077537656 0.04283953
0003b0 66 55 13 3e 6f 0f a0 bc 28 e9 e0 3d ee 73 06 3d
       0.14388046 -0.01953861 0.10981971 0.032825403
0003c0 60 ca 10 3c bf fd 92 3c cd a5 e2 bd 05 38 85 bc
       0.008837312 0.017943261 -0.1106678 -0.016262064
0003d0 73 cc 53 3d 27 e8 2a be 6d 37 bc 3a 62 91 bd bb
       0.05170865 -0.16690122 0.001435978 -0.0057851532
0003e0 e3 b0 6d 3d 3b 5b 8c bc 23 3d 37 bd 1a ea ec 3d
       0.05803002 -0.017133346 -0.04473604 0.11568089
0003f0 00 1b 8a bd ca f2 c9 3c 08 fc 84 3d bf d0 5b 3e
       -0.06743431 0.024651904 0.06493384 0.21466349

action_model._discrete_distribution.branches.0.bias f4 [3]
000000 b2 7d 5d bc e5 ec 17 3c 46 c7 99 3b
       -0.013518738 0.009272789 0.0046929447

onnx::LSTM_116 f4 [1, 512, 128]
000000 80 26 a6 bc 66 21 20 be de 29 18 be 40 ec 2e be
       -0.02028203 -0.1563774 -0.14859721 -0.1708231
000010 9c 9c 26 be d4 2c 14 be 53 a9 37 3d f5 a0 40 3e
       -0.16270679 -0.14470226 0.044839215 0.188114
000020 82 92 9f 3d 90 63 fd bd a5 aa 09 3e dd f4 e1 bd
       0.07791616 -0.12372506 0.13444002 -0.11033032
000030 c1 c0 93 bd 37 69 04 3e 4c 15 be bd 76 af e0 bd
       -0.07214499 0.12930761 -0.09281406 -0.109709665
000040 1a 36 a3 bd 78 90 20 bd 06 8a 77 3d 8b 18 85 bd
       -0.079693034 -0.039200276 0.060434364 -0.06498822
000050 27 dd 1a 3e 5f 90 59 3c 76 21 0e bd 7f 25 fd 3d
       0.15123425 0.01327905 -0.03469988 0.123606674
000060 7a d4 bb 3d 94 90 95 3d 0f ad 21 be 44 82 8c bc
       0.09171386 0.07302967 -0.15788673 -0.01715196
000070 ab 82 c5 bc b4 b6 b0 bd 77 a6 b6 3d 70 40 d5 bc
       -0.024110159 -0.08628598 0.089184694 -0.026031703
000080 a3 98 3b bd b7 5d 90 bc cb bd 8b 3c e3 54 df 3c
       -0.045799863 -0.017622812 0.017058274 0.027262157
000090 ee 1e 40 3d d0 a2 99 bd d5 4c 2d 3d da 8e a2 3c
       0.046904497 -0.07501757 0.0423096 0.019843508
0000a0 9e 17 ce bd 23 0b ba 3d cb 2a 57 bc 68 dd 17 ba
       -0.10063098 0.090841554 -0.013132761 -0.0005793185
0000b0 ee 9e 93 3d df 59 8e 3d 18 11 e2 3c 40 de 3b 3e
       0.07208048 0.06950735 0.027596042 0.183465
0000c0 12 8c 0c be 37 f3 a9 bd c4 79 1c 3e 7e 54 3a 3d
       -0.13725308 -0.08298343 0.15280825 0.045490734
0000d0 24 95 1e 3e 86 4e b8 bd 52 c4 f6 3d 0d 92 1f bd
       0.1548658 -0.08999352 0.12049164 -0.038957644
0000e0 61 c3 bd bb fe 7d 5e bd 19 b0 e9 bd 39 b9 7b bd
       -0.0057911132 -0.054319374 -0.11410541 -0.06145594
0000f0 34 a1 1d 3c fd 29 02 3e 34 70 46 bd a5 9f 05 3e
       0.009620953 0.1271133 -0.04844685 0.13049181
000100 1e 90 8d 3d 97 5a 96 bc 89 eb ad 3d 67 c7 ac 3d
       0.06912254 -0.018353743 0.084921904 0.084364705
000110 ca 89 a7 bd 72 9d 0a 3e c2 7f 50 3d ab 41 9f 3c
       -0.08180578 0.13536623 0.05090309 0.019440493
000120 56 6d ce bd d7 d4 02 3c cf 75 20 be 31 e4 e9 bd
       -0.10079448 0.007985315 -0.1566994 -0.11420477
000130 2f 5b f3 3d fa 60 be bd f2 0b a8 bd 35 e3 cf bc
       0.11882626 -0.092958406 -0.082054034 -0.025376895
000140 3f d8 f4 3c 83 9a f2 bc ed 22 e7 3d c5 da 04 bc
       0.02988827 -0.029614693 0.112859584 -0.008108799
000150 2b 71 3e be a1 b7 cc bd 6c 01 9e 3c 45 85 32 bd
       -0.18597858 -0.09995962 0.019287787 -0.043584127
000160 db 7d 99 b9 93 8a 6f 3d af 76 e4 3d 03 a9 a4 3d
       -0.00029276204 0.058481764 0.111554496 0.08040049
000170 c0 1f 96 3d 84 6b 0a 3e 5c 03 9d 3d 24 10 82 bb
       0.073302746 0.13517576 0.076666564 -0.0039692093
000180 2a 4f ec bd df 22 e8 bc f6 80 03 be 15 d6 e6 3d
       -0.11538537 -0.02833694 -0.12842163 0.11271302
000190 59 34 a6 3d 4f 32 f7 bc d8 e7 a4 bd 0e 09 06 3d
       0.08115453 -0.030175356 -0.08052033 0.03272348
0001a0 4a c7 80 bd b6 5b 08 be 13 65 00 be da 2b b2 3c
       -0.06288011 -0.13316235 -0.12538557 0.021749426
0001b0 6c 9d 52 bd 3c 43 96 3d 11 8d 1f 3e 05 8a 15 3c
       -0.05141966 0.07337043 0.15581156 0.009127145
0001c0 5b 14 b7 3d e8 aa 18 bd cb df 36 be 01 5b 7f 3d
       0.089394294 -0.037272364 -0.17858808 0.062342647
0001d0 5d 67 13 be cf e7 b8 bd 39 91 c4 bc b4 61 bb bd
       -0.14394899 -0.09028589 -0.023995029 -0.09149495
0001e0 3f 29 96 3c c9 2a cc bd ab c3 a3 3c a8 40 ba bd
       0.018330215 -0.09969098 0.019990763 -0.090943635
0001f0 47 38 43 3e 16 76 03 3e a8 e1 44 3d 3b d4 4f ba
       0.19064437 0.12838015 0.048066765 -0.0007928048
000200 64 d3 24 3d 52 0d 0f be 9c 34 1b 3d 96 69 90 3d
       0.04024066 -0.13969925 0.03789197 0.07051389
000210 a7 fd 9c bd bc f9 8d bd 74 42 a4 bd c1 bd aa 3d
       -0.07665568 -0.06932399 -0.080204874 0.08336974
000220 49 dc b5 bd d5 72 96 bc cb a7 80 3d ff bb a9 3d
       -0.08879907 -0.018365303 0.06282004 0.082878105
000230 e2 62 40 bb b9 df 0b be 77 18 27 3d 3c 12 f4 3d
       -0.0029355814 -0.13659562 0.040794816 0.119175404
000240 38 dd ad 3d 70 7e 15 bd fb d3 62 bc f7 a6 54 3d
       0.0848946 -0.036497533 -0.013844485 0.051917043
000250 65 33 07 3e 36 22 9e bd 6f b8 09 ba df 00 e9 3d
       0.13203199 -0.07721369 -0.0005253618 0.11377119
000260 23 40 9b bd c1 9c 95 3d 86 35 94 bd f1 b4 ae 3a
       -0.075805925 0.07305289 -0.07236771 0.0013329071
000270 52 5e 51 3d 86 c3 53 bd 33 e6 fa bd fd 33 12 bd
       0.05111534 -0.051700138 -0.12250938 -0.03569411
000280 f9 b2 25 3d 7d a5 f2 3d ce 14 9d bd 9c 3d cd 3d
       0.040453885 0.11847971 -0.07669984 0.10021517
000290 26 f7 a1 3d 70 33 ca 3d 5b 68 1d 3e 01 84 6e 3d
       0.07908468 0.09873092 0.1537184 0.058231357
0002a0 c7 e4 0b be f7 64 0d 3e e5 75 8c bd 22 8b 34 bc
       -0.1366149 0.13808046 -0.06858424 -0.0110195
0002b0 a1 ac 6e 3c a6 d6 11 3e 1c 7a ce 3d 03 f2 1b bc
       0.014567525 0.14242038 0.10081884 -0.009518149
0002c0 6f c5 17 3e cd 33 d4 bd b8 5b 68 bd 16 d9 14 3e
       0.14821409 -0.10361443 -0.056728095 0.14535937
0002d0 49 f9 1b be ad 90 b2 bb 8c 3e a5 bd de 58 46 bd
       -0.15231813 -0.0054493756 -0.080685705 -0.048424594
0002e0 f2 47 f4 bd cb b3 f1 3d 8e b2 07 3e 45 14 51 3d
       -0.11927785 0.11801871 0.13251707 0.05104472
0002f0 9d 72 1f 3e 37 db 11 3e 98 7a a5 3a c0 ba cd bc
       0.15571065 0.1424378 0.0012625037 -0.025113463
000300 0b 9d 8a 3d 25 c3 94 3d f0 15 f7 bd 60 43 05 be
       0.06768235 0.07263783 -0.12064731 -0.13013983
000310 d1 e9 c8 bc 6f 08 c2 bd d2 55 ae 3c 7a c1 cf 3d
       -0.024525555 -0.09474265 0.021281157 0.101443246
000320 bd 3c 3c 3d 4b e0 e1 3d fe c2 b5 3c 41 8d 74 3d
       0.045956362 0.110291086 0.022187706 0.059705023
000330 a5 69 56 bd 00 43 be 3d 11 8c 4e bb 3c c0 c5 3d
       -0.052346844 0.09290123 -0.0031516592 0.096558064
000340 3e e7 de 3d 23 46 fd bc 8c 2d ca 3d 89 9d ba 3d
       0.1088395 -0.030917233 0.098719686 0.09112079
000350 63 ca 75 bc c5 34 b1 bd 6e 3b c9 bd 9d ec e8 3d
       -0.015001866 -0.08652643 -0.098257884 0.113732554
000360 32 a0 f4 3d e4 44 46 bc 96 e2 48 39 35 3a cb bd
       0.11944617 -0.012101386 0.00019157896 -0.099232115
000370 2b 2d 20 bc 72 79 23 bd 6b 39 85 3d 9a 8a 57 bd
       -0.009776394 -0.03991074 0.06505092 -0.052622415
000380 53 71 88 bd 21 c4 63 bd 61 13 0d 3e a9 2b f0 bd
       -0.0666224 -0.055606965 0.13776924 -0.117270775
000390 55 9c af 3c 3b 44 33 3d 6f 16 9c 3d a3 48 45 3d
       0.02143685 0.04376624 0.07621466 0.048164975
0003a0 fe 55 41 3b 73 66 22 3e 36 1a a5 3d 6b 8e cd 3d
       0.0029500718 0.15859394 0.0806164 0.1003693
0003b0 79 d2 81 3d f7 5a 06 3e 04 80 14 3e fe 91 ae 3d
       0.063389726 0.13120638 0.14501959 0.085239395
0003c0 03 35 81 bb e6 42 7b bd 0c 4e bd bd 20 b5 d4 3b
       -0.003943087 -0.061343096 -0.09243402 0.0064913183
0003d0 68 27 07 3e 45 02 22 3e 94 26 04 be b3 19 7b bd
       0.13198626 0.15821178 -0.12905341 -0.061303806
0003e0 27 3b 8f bd b5 20 9e bd 91 1c b4 3b a6 93 4a 3d
       -0.06993704 -0.07721082 0.0054965694 0.049457215
0003f0 3c 05 15 3d 75 45 02 be ab ff ed 3d 12 63 71 3d
       0.036381945 -0.12721808 0.116210304 0.05893237

onnx::LSTM_117 f4 [1, 512, 128]
000000 0a 09 0d 3d e8 ad 4e be e4 e9 42 3d 80 56 f3 b9
       0.03443245 -0.20183527 0.047586337 -0.0004641302
000010 29 00 25 3e ca 5e e7 3b 3c d2 ea bc e8 d3 97 bc
       0.16113342 0.0070608603 -0.0286647 -0.018533662
000020 95 87 00 be 7c ee bc 3d 36 ae 1f 3e 7a 7b 0c be
       -0.1255172 0.09225175 0.155938 -0.13718978
000030 5c 59 94 bd 44 95 20 3d 47 11 bb bd 14 30 2b bc
       -0.072436064 0.03920485 -0.09134155 -0.010448474
000040 47 76 11 3d 01 98 01 be b0 90 9b bd a2 ee e5 bc
       0.03551319 -0.12655641 -0.07595956 -0.02806789
000050 21 9b 91 bd 27 49 26 be 3c ed 02 bd 64 54 d8 3d
       -0.071096666 -0.16238843 -0.031964526 0.10562971
000060 d5 02 c8 bc da 8f eb 3d 59 4a 66 3d c0 0f 00 3e
       -0.024415413 0.11502047 0.056223247 0.12506008
000070 89 df 3f bd ed bd 06 3e 50 ff b3 bd ff eb c8 3d
       -0.04684404 0.13158388 -0.08788931 0.09810638
000080 5a 8e 63 3d 52 2b 23 3e 6e 14 11 bc fd 4a a4 3d
       0.05555568 0.15934494 -0.0088549685 0.080221154
000090 74 c6 ad 3d af 57 9c 3d ee 3c 01 3e b9 66 0e 3d
       0.084851176 0.07633912 0.12620899 0.034765933
0000a0 b4 bb 13 be 34 f6 4f 3d 86 00 41 bd e7 36 e2 bd
       -0.14427072 0.050771907 -0.04711964 -0.11045628
0000b0 a2 94 03 be 63 d7 47 3d 44 b1 51 bd 32 25 84 bd
       -0.12849668 0.048789393 -0.051194444 -0.06452407
0000c0 26 d9 c1 3d 79 28 87 bd 9a 5a 3f be 0d 87 b8 3c
       0.09465246 -0.065995164 -0.18686906 0.022525335
0000d0 18 9f 14 be 33 7a 07 be 89 03 06 be 7a 98 78 bc
       -0.14513814 -0.13230209 -0.13087286 -0.015173072
0000e0 15 ae b9 bd 2d 56 d4 3d 5b 3d df bd ae a1 1d bd
       -0.09066407 0.10367999 -0.109003745 -0.038484268
0000f0 1e be e5 3c be 94 85 3c 0a cc a7 bb 63 bb e3 bd
       0.028044757 0.016306277 -0.005120759 -0.111197256
000100 a5 bb d2 3d fc aa 54 3d ad 2c 46 3d 07 c5 1f be
       0.102896966 0.051920876 0.04838245 -0.15602504
000110 9b fe 94 bd 3c 0d 1d be 00 83 6d 3a d7 ff a4 3d
       -0.07275125 -0.1533708 0.0009060353 0.0805661
000120 fd 59 2a bd 58 1e 03 bc a6 19 e8 3d 6f c6 08 3e
       -0.041589726 -0.00800284 0.11333017 0.13356946
000130 7b ad eb 3d 09 e0 eb bd a1 0c e7 bd f3 62 bb bd
       0.11507698 -0.11517341 -0.11281706 -0.091497324
000140 0e 55 27 bd 3f ae eb bd a0 51 9f 3d db c0 12 3d
       -0.0408526 -0.11507844 0.077792406 0.035828453
000150 0a ca 91 3d de bd 25 bd 81 fe 2b 3c 75 7a f7 bd
       0.07118614 -0.040464275 0.01049769 -0.12083904
000160 53 6a 0a 3e 88 c8 c6 3d 55 fa a3 bd 26 86 82 3d
       0.13517122 0.09706217 -0.080067314 0.06373243
000170 f4 9f 2b be 6b 0c d1 3c 38 7d e5 bc c1 fa fe 3d
       -0.16760236 0.025518617 -0.02801381 0.12450171
000180 ae 49 ee bd eb 50 fe bb 41 ce ed 3d 01 22 be bd
       -0.11635147 -0.007761111 0.116116054 -0.092838295
000190 af e5 ff 3d cd ce 76 bd e0 46 47 3d 02 05 01 3c
       0.124949805 -0.060255814 0.048651576 0.007874729
0001a0 a1 df e3 bd b5 fa a9 3d f2 15 c1 bc 8d 02 db 3d
       -0.11126638 0.08299772 -0.023570035 0.10693846
0001b0 d6 5d 84 bd 23 42 d2 bd 00 ea ea bd 3b 9b f8 bd
       -0.0646321 -0.10266521 -0.11470413 -0.12138983
0001c0 a5 66 3e 3d 13 98 c3 3d b1 c9 35 3d 1c 96 35 bc
       0.04648461 0.0955049 0.0443818 -0.011083152
0001d0 db db ca 3d 91 c6 37 3e aa 31 1b 3c 0e 7c 10 3e
       0.09905215 0.17946841 0.00947229 0.14109823
0001e0 f3 82 29 3e 1f 79 73 be e9 fc 96 3d 0d 22 8c 3d
       0.1655386 -0.23776673 0.073724575 0.06842432
0001f0 7c 6e 71 3d 10 fd 9b bc eb 4a 02 be 86 88 e8 bd
       0.058943257 -0.019041568 -0.12723891 -0.11354165
000200 48 17 57 bd b5 91 f5 3d 42 57 a7 bd d4 ec 10 bd
       -0.052512437 0.11990682 -0.0817094 -0.035382107
000210 2f 49 9a bb 1b b5 18 be 1b e3 91 3d b0 4f 12 3d
       -0.004708431 -0.14912836 0.07123395 0.035720527
000220 33 c3 5c bd e5 8b 5e bd 7b 8c d7 3d 3d 80 e9 bd
       -0.053897094 -0.054332633 0.105248414 -0.11401413
000230 28 b0 90 3d a0 71 b8 bb 4a 88 9a 3c 66 53 f6 3d
       0.07064849 -0.0056287795 0.018863816 0.12027626
000240 5a 20 e5 3d 24 07 c3 3c c0 ad b1 3d f8 65 e8 3c
       0.11187811 0.023807116 0.08675718 0.028368935
000250 75 52 5c 3c c5 e0 ec 3d a4 0d fa bd 53 b2 25 3c
       0.013447394 0.11566309 -0.12209633 0.010113317
000260 76 9b d2 bd d6 66 e6 bd 88 2e dc 3d 72 9b 11 be
       -0.10283558 -0.11250083 0.10751063 -0.14219454
000270 e6 b5 05 3c c8 e3 05 3c ad 9e 8f bd d6 3b 04 3e
       0.008161044 0.008171983 -0.07012687 0.1291345
000280 26 1d 8d bd 11 4c dd bd fd 2a 92 bc a5 0a 0c 3e
       -0.06890325 -0.10805524 -0.017842764 0.13675936
000290 b2 fd dd bd 73 d3 db 3d 01 a4 12 be 72 31 11 3e
       -0.10839404 0.1073369 -0.14320375 0.14179018
0002a0 26 8d 00 be c3 ef 19 be 92 c4 62 bd 4a 1c 4d 3d
       -0.12553844 -0.15032868 -0.055363245 0.050075807
0002b0 c3 89 6e 3d 20 e4 01 be d8 25 04 3e 52 da e2 bc
       0.05823685 -0.12684679 0.12905061 -0.027691994
0002c0 ce 6e d0 bd c9 d0 38 bd a6 b2 12 3c 34 b4 78 3d
       -0.10177384 -0.045120988 0.008953726 0.06071873
0002d0 ca cd 9a bd 0e d3 04 bb 0b 7a ee bc 72 7d 95 3d
       -0.075587824 -0.00202674 -0.029110929 0.072993174
0002e0 0e e7 d8 3c 80 0c b7 3d 79 fa e4 bd 0f da f9 bd
       0.026477363 0.08937931 -0.11180586 -0.121997945
0002f0 10 c8 40 3d 6f 78 ec 3d 87 29 14 3e 76 2a b1 bd
       0.047065794 0.115464084 0.14468966 -0.08650677
000300 fe 3c bd 3d 93 e9 18 3e 70 8a c2 3d e0 7b 18 3e
       0.09240149 0.14932851 0.09499061 0.14891005
000310 b1 35 4a bd a5 1a 73 bc 29 f9 1f bd 28 c0 dc bc
       -0.04936761 -0.0148378955 -0.039055977 -0.026947096
000320 c7 a8 bb bd da a2 19 3e 9a 9b a9 bd e2 8e b6 bd
       -0.09163051 0.15003529 -0.08281632 -0.089139715
000330 ca aa 68 3d 5a 39 a0 bd 6f f9 32 bd f6 fc 18 3e
       0.056803502 -0.07823439 -0.04369491 0.14940247
000340 6e b4 d5 3d d9 0d d8 bd 7c f3 06 be c8 77 dd 3d
       0.10434805 -0.10549516 -0.1317882 0.10813862
000350 f9 27 b3 bd b8 f3 04 3d 5d 5d 17 bd dc 8d 9a bd
       -0.087478586 0.03245899 -0.036954273 -0.07546589
000360 fa 50 0f bd 76 75 b7 bd 15 2a f6 3d 44 b7 83 bd
       -0.034989335 -0.08957951 0.12019745 -0.064314395
000370 01 d1 be ba df 92 ad 3d 0f 27 0d bd 6f 65 17 be
       -0.0014558138 0.08475279 -0.034461077 -0.14784788
000380 38 45 53 3c 7b e3 08 bd d8 f6 0b 3e b7 d6 e6 bd
       0.012894921 -0.033420067 0.13668382 -0.11271422
000390 b4 fd 90 bd e9 6d 31 3c 87 0d 71 bd 96 1a e6 bd
       -0.0707964 0.010829427 -0.05885079 -0.112355396
0003a0 55 82 ba 3c b1 59 ee bd 43 72 39 3c 5a d9 b4 3d
       0.022767225 -0.11638201 0.011318746 0.08830519
0003b0 2e f2 eb 3d a3 6c 8a 3d fe 92 e7 3d 4a 99 ba bc
       0.115208015 0.06759002 0.113073334 -0.022778172
0003c0 7e f0 48 3d 35 64 27 bd e5 1f ca 3d 71 d5 b7 bd
       0.049057476 -0.04086705 0.09869365 -0.089762576
0003d0 d6 b1 0e 3e 3f 3a 00 be 24 f2 c6 3d 27 a9 7c bd
       0.13935027 -0.12522219 0.097141534 -0.061684754
0003e0 fd e4 df bd 68 e8 3e 3d ce 4a c7 3d eb 51 11 3e
       -0.10932348 0.04660836 0.09731065 0.14191405
0003f0 bb 58 63 bd 24 81 53 bb 8b 35 05 3c e7 f8 b8 bd
       -0.05550454 -0.0032273019 0.008130441 -0.09031849
